graph main_graph (
  %jets[FLOAT, num_jetsx6]
  %leptons[FLOAT, num_leptonsx6]
  %met[FLOAT, num_metx3]
  %misc[FLOAT, num_miscx3]
) initializers (
  %transformer.encoder.registers[FLOAT, 1x2x128]
  %transformer.encoder.layers.0.attn.fn.attn_in_b[FLOAT, 384]
  %transformer.encoder.layers.0.attn.fn.attn_out.bias[FLOAT, 128]
  %transformer.encoder.layers.0.attn.norm.weight[FLOAT, 128]
  %transformer.encoder.layers.0.attn.norm.bias[FLOAT, 128]
  %transformer.encoder.layers.0.attn.ls.gamma[FLOAT, 128]
  %transformer.encoder.layers.0.ff.fn.lin1.bias[FLOAT, 512]
  %transformer.encoder.layers.0.ff.fn.lin2.bias[FLOAT, 128]
  %transformer.encoder.layers.0.ff.norm.weight[FLOAT, 128]
  %transformer.encoder.layers.0.ff.norm.bias[FLOAT, 128]
  %transformer.encoder.layers.0.ff.ls.gamma[FLOAT, 128]
  %transformer.encoder.layers.1.attn.fn.attn_in_b[FLOAT, 384]
  %transformer.encoder.layers.1.attn.fn.attn_out.bias[FLOAT, 128]
  %transformer.encoder.layers.1.attn.norm.weight[FLOAT, 128]
  %transformer.encoder.layers.1.attn.norm.bias[FLOAT, 128]
  %transformer.encoder.layers.1.attn.ls.gamma[FLOAT, 128]
  %transformer.encoder.layers.1.ff.fn.lin1.bias[FLOAT, 512]
  %transformer.encoder.layers.1.ff.fn.lin2.bias[FLOAT, 128]
  %transformer.encoder.layers.1.ff.norm.weight[FLOAT, 128]
  %transformer.encoder.layers.1.ff.norm.bias[FLOAT, 128]
  %transformer.encoder.layers.1.ff.ls.gamma[FLOAT, 128]
  %transformer.encoder.layers.2.attn.fn.attn_in_b[FLOAT, 384]
  %transformer.encoder.layers.2.attn.fn.attn_out.bias[FLOAT, 128]
  %transformer.encoder.layers.2.attn.norm.weight[FLOAT, 128]
  %transformer.encoder.layers.2.attn.norm.bias[FLOAT, 128]
  %transformer.encoder.layers.2.attn.ls.gamma[FLOAT, 128]
  %transformer.encoder.layers.2.ff.fn.lin1.bias[FLOAT, 512]
  %transformer.encoder.layers.2.ff.fn.lin2.bias[FLOAT, 128]
  %transformer.encoder.layers.2.ff.norm.weight[FLOAT, 128]
  %transformer.encoder.layers.2.ff.norm.bias[FLOAT, 128]
  %transformer.encoder.layers.2.ff.ls.gamma[FLOAT, 128]
  %transformer.encoder.layers.3.attn.fn.attn_in_b[FLOAT, 384]
  %transformer.encoder.layers.3.attn.fn.attn_out.bias[FLOAT, 128]
  %transformer.encoder.layers.3.attn.norm.weight[FLOAT, 128]
  %transformer.encoder.layers.3.attn.norm.bias[FLOAT, 128]
  %transformer.encoder.layers.3.attn.ls.gamma[FLOAT, 128]
  %transformer.encoder.layers.3.ff.fn.lin1.bias[FLOAT, 512]
  %transformer.encoder.layers.3.ff.fn.lin2.bias[FLOAT, 128]
  %transformer.encoder.layers.3.ff.norm.weight[FLOAT, 128]
  %transformer.encoder.layers.3.ff.norm.bias[FLOAT, 128]
  %transformer.encoder.layers.3.ff.ls.gamma[FLOAT, 128]
  %transformer.encoder.layers.4.attn.fn.attn_in_b[FLOAT, 384]
  %transformer.encoder.layers.4.attn.fn.attn_out.bias[FLOAT, 128]
  %transformer.encoder.layers.4.attn.norm.weight[FLOAT, 128]
  %transformer.encoder.layers.4.attn.norm.bias[FLOAT, 128]
  %transformer.encoder.layers.4.attn.ls.gamma[FLOAT, 128]
  %transformer.encoder.layers.4.ff.fn.lin1.bias[FLOAT, 512]
  %transformer.encoder.layers.4.ff.fn.lin2.bias[FLOAT, 128]
  %transformer.encoder.layers.4.ff.norm.weight[FLOAT, 128]
  %transformer.encoder.layers.4.ff.norm.bias[FLOAT, 128]
  %transformer.encoder.layers.4.ff.ls.gamma[FLOAT, 128]
  %transformer.encoder.linear_embed.bias[FLOAT, 128]
  %transformer.pool.global_token[FLOAT, 1x1x128]
  %transformer.pool.layers.0.attn.fn.attn_in_w[FLOAT, 384x128]
  %transformer.pool.layers.0.attn.fn.attn_in_b[FLOAT, 384]
  %transformer.pool.layers.0.attn.fn.attn_out.bias[FLOAT, 128]
  %transformer.pool.layers.0.ff.fn.lin1.bias[FLOAT, 512]
  %transformer.pool.layers.0.ff.fn.lin2.bias[FLOAT, 128]
  %transformer.pool.layers.1.attn.fn.attn_in_w[FLOAT, 384x128]
  %transformer.pool.layers.1.attn.fn.attn_in_b[FLOAT, 384]
  %transformer.pool.layers.1.attn.fn.attn_out.bias[FLOAT, 128]
  %transformer.pool.layers.1.ff.fn.lin1.bias[FLOAT, 512]
  %transformer.pool.layers.1.ff.fn.lin2.bias[FLOAT, 128]
  %transformer.pool.linear_embed.bias[FLOAT, 128]
  %transformer.pool.final_norm.weight[FLOAT, 128]
  %transformer.pool.final_norm.bias[FLOAT, 128]
  %transformer.pool.linear_out.weight[FLOAT, 128x128]
  %transformer.pool.linear_out.bias[FLOAT, 128]
  %jets_norm.means[FLOAT, 1x6]
  %jets_mlp.input_block.layers.0.bias[FLOAT, 256]
  %jets_mlp.output_block.layers.0.bias[FLOAT, 128]
  %leptons_norm.means[FLOAT, 1x6]
  %leptons_mlp.input_block.layers.0.bias[FLOAT, 256]
  %leptons_mlp.output_block.layers.0.bias[FLOAT, 128]
  %met_norm.means[FLOAT, 1x3]
  %met_mlp.input_block.layers.0.bias[FLOAT, 256]
  %met_mlp.output_block.layers.0.bias[FLOAT, 128]
  %misc_norm.means[FLOAT, 1x3]
  %misc_mlp.input_block.layers.0.bias[FLOAT, 256]
  %misc_mlp.output_block.layers.0.bias[FLOAT, 128]
  %target_norm.means[FLOAT, 1x6]
  %flow.q0.loc[FLOAT, 1x6]
  %flow.flows.0.prqct.identity_features[INT64, 3]
  %flow.flows.0.prqct.transform_features[INT64, 3]
  %flow.flows.0.prqct.transform_net.input_block.layers.0.weight[FLOAT, 64x3]
  %flow.flows.0.prqct.transform_net.input_block.layers.0.bias[FLOAT, 64]
  %flow.flows.0.prqct.transform_net.hidden_blocks.0.layers.0.weight[FLOAT, 64x192]
  %flow.flows.0.prqct.transform_net.hidden_blocks.0.layers.0.bias[FLOAT, 64]
  %flow.flows.0.prqct.transform_net.output_block.layers.0.weight[FLOAT, 87x192]
  %flow.flows.0.prqct.transform_net.output_block.layers.0.bias[FLOAT, 87]
  %flow.flows.1.prqct.transform_net.input_block.layers.0.weight[FLOAT, 64x3]
  %flow.flows.1.prqct.transform_net.input_block.layers.0.bias[FLOAT, 64]
  %flow.flows.1.prqct.transform_net.hidden_blocks.0.layers.0.weight[FLOAT, 64x192]
  %flow.flows.1.prqct.transform_net.hidden_blocks.0.layers.0.bias[FLOAT, 64]
  %flow.flows.1.prqct.transform_net.output_block.layers.0.weight[FLOAT, 87x192]
  %flow.flows.1.prqct.transform_net.output_block.layers.0.bias[FLOAT, 87]
  %flow.flows.2.prqct.transform_net.input_block.layers.0.weight[FLOAT, 64x3]
  %flow.flows.2.prqct.transform_net.input_block.layers.0.bias[FLOAT, 64]
  %flow.flows.2.prqct.transform_net.hidden_blocks.0.layers.0.weight[FLOAT, 64x192]
  %flow.flows.2.prqct.transform_net.hidden_blocks.0.layers.0.bias[FLOAT, 64]
  %flow.flows.2.prqct.transform_net.output_block.layers.0.weight[FLOAT, 87x192]
  %flow.flows.2.prqct.transform_net.output_block.layers.0.bias[FLOAT, 87]
  %flow.flows.3.prqct.transform_net.input_block.layers.0.weight[FLOAT, 64x3]
  %flow.flows.3.prqct.transform_net.input_block.layers.0.bias[FLOAT, 64]
  %flow.flows.3.prqct.transform_net.hidden_blocks.0.layers.0.weight[FLOAT, 64x192]
  %flow.flows.3.prqct.transform_net.hidden_blocks.0.layers.0.bias[FLOAT, 64]
  %flow.flows.3.prqct.transform_net.output_block.layers.0.weight[FLOAT, 87x192]
  %flow.flows.3.prqct.transform_net.output_block.layers.0.bias[FLOAT, 87]
  %flow.flows.4.prqct.transform_net.input_block.layers.0.weight[FLOAT, 64x3]
  %flow.flows.4.prqct.transform_net.input_block.layers.0.bias[FLOAT, 64]
  %flow.flows.4.prqct.transform_net.hidden_blocks.0.layers.0.weight[FLOAT, 64x192]
  %flow.flows.4.prqct.transform_net.hidden_blocks.0.layers.0.bias[FLOAT, 64]
  %flow.flows.4.prqct.transform_net.output_block.layers.0.weight[FLOAT, 87x192]
  %flow.flows.4.prqct.transform_net.output_block.layers.0.bias[FLOAT, 87]
  %flow.flows.5.prqct.transform_net.input_block.layers.0.weight[FLOAT, 64x3]
  %flow.flows.5.prqct.transform_net.input_block.layers.0.bias[FLOAT, 64]
  %flow.flows.5.prqct.transform_net.hidden_blocks.0.layers.0.weight[FLOAT, 64x192]
  %flow.flows.5.prqct.transform_net.hidden_blocks.0.layers.0.bias[FLOAT, 64]
  %flow.flows.5.prqct.transform_net.output_block.layers.0.weight[FLOAT, 87x192]
  %flow.flows.5.prqct.transform_net.output_block.layers.0.bias[FLOAT, 87]
  %flow.flows.6.prqct.transform_net.input_block.layers.0.weight[FLOAT, 64x3]
  %flow.flows.6.prqct.transform_net.input_block.layers.0.bias[FLOAT, 64]
  %flow.flows.6.prqct.transform_net.hidden_blocks.0.layers.0.weight[FLOAT, 64x192]
  %flow.flows.6.prqct.transform_net.hidden_blocks.0.layers.0.bias[FLOAT, 64]
  %flow.flows.6.prqct.transform_net.output_block.layers.0.weight[FLOAT, 87x192]
  %flow.flows.6.prqct.transform_net.output_block.layers.0.bias[FLOAT, 87]
  %flow.flows.7.prqct.transform_net.input_block.layers.0.weight[FLOAT, 64x3]
  %flow.flows.7.prqct.transform_net.input_block.layers.0.bias[FLOAT, 64]
  %flow.flows.7.prqct.transform_net.hidden_blocks.0.layers.0.weight[FLOAT, 64x192]
  %flow.flows.7.prqct.transform_net.hidden_blocks.0.layers.0.bias[FLOAT, 64]
  %flow.flows.7.prqct.transform_net.output_block.layers.0.weight[FLOAT, 87x192]
  %flow.flows.7.prqct.transform_net.output_block.layers.0.bias[FLOAT, 87]
  %flow.flows.8.prqct.transform_net.input_block.layers.0.weight[FLOAT, 64x3]
  %flow.flows.8.prqct.transform_net.input_block.layers.0.bias[FLOAT, 64]
  %flow.flows.8.prqct.transform_net.hidden_blocks.0.layers.0.weight[FLOAT, 64x192]
  %flow.flows.8.prqct.transform_net.hidden_blocks.0.layers.0.bias[FLOAT, 64]
  %flow.flows.8.prqct.transform_net.output_block.layers.0.weight[FLOAT, 87x192]
  %flow.flows.8.prqct.transform_net.output_block.layers.0.bias[FLOAT, 87]
  %flow.flows.9.prqct.transform_net.input_block.layers.0.weight[FLOAT, 64x3]
  %flow.flows.9.prqct.transform_net.input_block.layers.0.bias[FLOAT, 64]
  %flow.flows.9.prqct.transform_net.hidden_blocks.0.layers.0.weight[FLOAT, 64x192]
  %flow.flows.9.prqct.transform_net.hidden_blocks.0.layers.0.bias[FLOAT, 64]
  %flow.flows.9.prqct.transform_net.output_block.layers.0.weight[FLOAT, 87x192]
  %flow.flows.9.prqct.transform_net.output_block.layers.0.bias[FLOAT, 87]
  %onnx::Div_17258[FLOAT, 1x6]
  %onnx::MatMul_17259[FLOAT, 6x256]
  %onnx::MatMul_17260[FLOAT, 256x128]
  %onnx::Div_17262[FLOAT, 1x6]
  %onnx::MatMul_17263[FLOAT, 6x256]
  %onnx::MatMul_17264[FLOAT, 256x128]
  %onnx::Div_17266[FLOAT, 1x3]
  %onnx::MatMul_17267[FLOAT, 3x256]
  %onnx::MatMul_17268[FLOAT, 256x128]
  %onnx::Div_17270[FLOAT, 1x3]
  %onnx::MatMul_17271[FLOAT, 3x256]
  %onnx::MatMul_17272[FLOAT, 256x128]
  %onnx::MatMul_17273[FLOAT, 128x128]
  %onnx::MatMul_17275[FLOAT, 128x384]
  %onnx::MatMul_17287[FLOAT, 128x128]
  %onnx::MatMul_17288[FLOAT, 128x512]
  %onnx::MatMul_17289[FLOAT, 256x128]
  %onnx::MatMul_17290[FLOAT, 128x384]
  %onnx::MatMul_17302[FLOAT, 128x128]
  %onnx::MatMul_17303[FLOAT, 128x512]
  %onnx::MatMul_17304[FLOAT, 256x128]
  %onnx::MatMul_17305[FLOAT, 128x384]
  %onnx::MatMul_17317[FLOAT, 128x128]
  %onnx::MatMul_17318[FLOAT, 128x512]
  %onnx::MatMul_17319[FLOAT, 256x128]
  %onnx::MatMul_17320[FLOAT, 128x384]
  %onnx::MatMul_17332[FLOAT, 128x128]
  %onnx::MatMul_17333[FLOAT, 128x512]
  %onnx::MatMul_17334[FLOAT, 256x128]
  %onnx::MatMul_17335[FLOAT, 128x384]
  %onnx::MatMul_17347[FLOAT, 128x128]
  %onnx::MatMul_17348[FLOAT, 128x512]
  %onnx::MatMul_17349[FLOAT, 256x128]
  %onnx::MatMul_17350[FLOAT, 128x128]
  %onnx::MatMul_17364[FLOAT, 128x128]
  %onnx::MatMul_17365[FLOAT, 128x512]
  %onnx::MatMul_17366[FLOAT, 256x128]
  %onnx::MatMul_17378[FLOAT, 128x128]
  %onnx::MatMul_17379[FLOAT, 128x512]
  %onnx::MatMul_17380[FLOAT, 256x128]
  %onnx::Expand_17382[FLOAT, 1x3x10]
  %onnx::Expand_17385[FLOAT, 1x3x10]
  %onnx::Expand_17388[FLOAT, 1x3x9]
  %onnx::Expand_17474[FLOAT, 1x3x10]
  %onnx::Expand_17477[FLOAT, 1x3x10]
  %onnx::Expand_17480[FLOAT, 1x3x9]
  %onnx::Expand_17566[FLOAT, 1x3x10]
  %onnx::Expand_17569[FLOAT, 1x3x10]
  %onnx::Expand_17572[FLOAT, 1x3x9]
  %onnx::Expand_17658[FLOAT, 1x3x10]
  %onnx::Expand_17661[FLOAT, 1x3x10]
  %onnx::Expand_17664[FLOAT, 1x3x9]
  %onnx::Expand_17750[FLOAT, 1x3x10]
  %onnx::Expand_17753[FLOAT, 1x3x10]
  %onnx::Expand_17756[FLOAT, 1x3x9]
  %onnx::Expand_17842[FLOAT, 1x3x10]
  %onnx::Expand_17845[FLOAT, 1x3x10]
  %onnx::Expand_17848[FLOAT, 1x3x9]
  %onnx::Expand_17934[FLOAT, 1x3x10]
  %onnx::Expand_17937[FLOAT, 1x3x10]
  %onnx::Expand_17940[FLOAT, 1x3x9]
  %onnx::Expand_18026[FLOAT, 1x3x10]
  %onnx::Expand_18029[FLOAT, 1x3x10]
  %onnx::Expand_18032[FLOAT, 1x3x9]
  %onnx::Expand_18118[FLOAT, 1x3x10]
  %onnx::Expand_18121[FLOAT, 1x3x10]
  %onnx::Expand_18124[FLOAT, 1x3x9]
  %onnx::Expand_18210[FLOAT, 1x3x10]
  %onnx::Expand_18213[FLOAT, 1x3x10]
  %onnx::Expand_18216[FLOAT, 1x3x9]
  %onnx::Mul_18302[FLOAT, 1x6]
) {
  %flow.flows.9.prqct.transform_features = Identity(%flow.flows.0.prqct.identity_features)
  %flow.flows.9.prqct.identity_features = Identity(%flow.flows.0.prqct.transform_features)
  %flow.flows.8.prqct.transform_features = Identity(%flow.flows.0.prqct.transform_features)
  %flow.flows.8.prqct.identity_features = Identity(%flow.flows.0.prqct.identity_features)
  %flow.flows.7.prqct.transform_features = Identity(%flow.flows.0.prqct.identity_features)
  %flow.flows.7.prqct.identity_features = Identity(%flow.flows.0.prqct.transform_features)
  %flow.flows.6.prqct.transform_features = Identity(%flow.flows.0.prqct.transform_features)
  %flow.flows.6.prqct.identity_features = Identity(%flow.flows.0.prqct.identity_features)
  %flow.flows.5.prqct.transform_features = Identity(%flow.flows.0.prqct.identity_features)
  %flow.flows.5.prqct.identity_features = Identity(%flow.flows.0.prqct.transform_features)
  %flow.flows.4.prqct.transform_features = Identity(%flow.flows.0.prqct.transform_features)
  %flow.flows.4.prqct.identity_features = Identity(%flow.flows.0.prqct.identity_features)
  %flow.flows.3.prqct.transform_features = Identity(%flow.flows.0.prqct.identity_features)
  %flow.flows.3.prqct.identity_features = Identity(%flow.flows.0.prqct.transform_features)
  %flow.flows.2.prqct.transform_features = Identity(%flow.flows.0.prqct.transform_features)
  %flow.flows.2.prqct.identity_features = Identity(%flow.flows.0.prqct.identity_features)
  %flow.flows.1.prqct.transform_features = Identity(%flow.flows.0.prqct.identity_features)
  %flow.flows.1.prqct.identity_features = Identity(%flow.flows.0.prqct.transform_features)
  %flow.q0.log_scale = Identity(%flow.q0.loc)
  %/Constant_output_0 = Constant[value = <Scalar Tensor []>]()
  %/Constant_1_output_0 = Constant[value = <Tensor>]()
  %/Unsqueeze_output_0 = Unsqueeze(%jets, %/Constant_1_output_0)
  %/Constant_2_output_0 = Constant[value = <Tensor>]()
  %/Unsqueeze_1_output_0 = Unsqueeze(%leptons, %/Constant_2_output_0)
  %/Constant_3_output_0 = Constant[value = <Tensor>]()
  %/Unsqueeze_2_output_0 = Unsqueeze(%met, %/Constant_3_output_0)
  %/Constant_4_output_0 = Constant[value = <Tensor>]()
  %/Unsqueeze_3_output_0 = Unsqueeze(%misc, %/Constant_4_output_0)
  %/jets_norm/Sub_output_0 = Sub(%/Unsqueeze_output_0, %jets_norm.means)
  %/jets_norm/Div_output_0 = Div(%/jets_norm/Sub_output_0, %onnx::Div_17258)
  %/jets_mlp/input_block/layers.0/MatMul_output_0 = MatMul(%/jets_norm/Div_output_0, %onnx::MatMul_17259)
  %/jets_mlp/input_block/layers.0/Add_output_0 = Add(%jets_mlp.input_block.layers.0.bias, %/jets_mlp/input_block/layers.0/MatMul_output_0)
  %/jets_mlp/input_block/layers.1/Sigmoid_output_0 = Sigmoid(%/jets_mlp/input_block/layers.0/Add_output_0)
  %/jets_mlp/input_block/layers.1/Mul_output_0 = Mul(%/jets_mlp/input_block/layers.0/Add_output_0, %/jets_mlp/input_block/layers.1/Sigmoid_output_0)
  %/jets_mlp/output_block/layers.0/MatMul_output_0 = MatMul(%/jets_mlp/input_block/layers.1/Mul_output_0, %onnx::MatMul_17260)
  %/jets_mlp/output_block/layers.0/Add_output_0 = Add(%jets_mlp.output_block.layers.0.bias, %/jets_mlp/output_block/layers.0/MatMul_output_0)
  %/leptons_norm/Sub_output_0 = Sub(%/Unsqueeze_1_output_0, %leptons_norm.means)
  %/leptons_norm/Div_output_0 = Div(%/leptons_norm/Sub_output_0, %onnx::Div_17262)
  %/leptons_mlp/input_block/layers.0/MatMul_output_0 = MatMul(%/leptons_norm/Div_output_0, %onnx::MatMul_17263)
  %/leptons_mlp/input_block/layers.0/Add_output_0 = Add(%leptons_mlp.input_block.layers.0.bias, %/leptons_mlp/input_block/layers.0/MatMul_output_0)
  %/leptons_mlp/input_block/layers.1/Sigmoid_output_0 = Sigmoid(%/leptons_mlp/input_block/layers.0/Add_output_0)
  %/leptons_mlp/input_block/layers.1/Mul_output_0 = Mul(%/leptons_mlp/input_block/layers.0/Add_output_0, %/leptons_mlp/input_block/layers.1/Sigmoid_output_0)
  %/leptons_mlp/output_block/layers.0/MatMul_output_0 = MatMul(%/leptons_mlp/input_block/layers.1/Mul_output_0, %onnx::MatMul_17264)
  %/leptons_mlp/output_block/layers.0/Add_output_0 = Add(%leptons_mlp.output_block.layers.0.bias, %/leptons_mlp/output_block/layers.0/MatMul_output_0)
  %/met_norm/Sub_output_0 = Sub(%/Unsqueeze_2_output_0, %met_norm.means)
  %/met_norm/Div_output_0 = Div(%/met_norm/Sub_output_0, %onnx::Div_17266)
  %/met_mlp/input_block/layers.0/MatMul_output_0 = MatMul(%/met_norm/Div_output_0, %onnx::MatMul_17267)
  %/met_mlp/input_block/layers.0/Add_output_0 = Add(%met_mlp.input_block.layers.0.bias, %/met_mlp/input_block/layers.0/MatMul_output_0)
  %/met_mlp/input_block/layers.1/Sigmoid_output_0 = Sigmoid(%/met_mlp/input_block/layers.0/Add_output_0)
  %/met_mlp/input_block/layers.1/Mul_output_0 = Mul(%/met_mlp/input_block/layers.0/Add_output_0, %/met_mlp/input_block/layers.1/Sigmoid_output_0)
  %/met_mlp/output_block/layers.0/MatMul_output_0 = MatMul(%/met_mlp/input_block/layers.1/Mul_output_0, %onnx::MatMul_17268)
  %/met_mlp/output_block/layers.0/Add_output_0 = Add(%met_mlp.output_block.layers.0.bias, %/met_mlp/output_block/layers.0/MatMul_output_0)
  %/misc_norm/Sub_output_0 = Sub(%/Unsqueeze_3_output_0, %misc_norm.means)
  %/misc_norm/Div_output_0 = Div(%/misc_norm/Sub_output_0, %onnx::Div_17270)
  %/misc_mlp/input_block/layers.0/MatMul_output_0 = MatMul(%/misc_norm/Div_output_0, %onnx::MatMul_17271)
  %/misc_mlp/input_block/layers.0/Add_output_0 = Add(%misc_mlp.input_block.layers.0.bias, %/misc_mlp/input_block/layers.0/MatMul_output_0)
  %/misc_mlp/input_block/layers.1/Sigmoid_output_0 = Sigmoid(%/misc_mlp/input_block/layers.0/Add_output_0)
  %/misc_mlp/input_block/layers.1/Mul_output_0 = Mul(%/misc_mlp/input_block/layers.0/Add_output_0, %/misc_mlp/input_block/layers.1/Sigmoid_output_0)
  %/misc_mlp/output_block/layers.0/MatMul_output_0 = MatMul(%/misc_mlp/input_block/layers.1/Mul_output_0, %onnx::MatMul_17272)
  %/misc_mlp/output_block/layers.0/Add_output_0 = Add(%misc_mlp.output_block.layers.0.bias, %/misc_mlp/output_block/layers.0/MatMul_output_0)
  %/SequenceConstruct_output_0 = SequenceConstruct(%/jets_mlp/output_block/layers.0/Add_output_0, %/leptons_mlp/output_block/layers.0/Add_output_0, %/met_mlp/output_block/layers.0/Add_output_0, %/misc_mlp/output_block/layers.0/Add_output_0)
  %/Constant_5_output_0 = Constant[value = <Scalar Tensor []>]()
  %/SequenceAt_output_0 = SequenceAt(%/SequenceConstruct_output_0, %/Constant_5_output_0)
  %/Shape_output_0 = Shape(%/SequenceAt_output_0)
  %/Size_output_0 = Size(%/Shape_output_0)
  %/Constant_6_output_0 = Constant[value = <Scalar Tensor []>]()
  %/Equal_output_0 = Equal(%/Size_output_0, %/Constant_6_output_0)
  %/If_output_0 = If[else_branch = <graph sub_graph1>, then_branch = <graph sub_graph>](%/Equal_output_0)
  %/transformer/encoder/linear_embed/MatMul_output_0 = MatMul(%/If_output_0, %onnx::MatMul_17273)
  %/transformer/encoder/linear_embed/Add_output_0 = Add(%transformer.encoder.linear_embed.bias, %/transformer/encoder/linear_embed/MatMul_output_0)
  %/transformer/encoder/Shape_output_0 = Shape(%/transformer/encoder/linear_embed/Add_output_0)
  %/transformer/encoder/Constant_output_0 = Constant[value = <Scalar Tensor []>]()
  %/transformer/encoder/Gather_output_0 = Gather[axis = 0](%/transformer/encoder/Shape_output_0, %/transformer/encoder/Constant_output_0)
  %/transformer/encoder/Shape_1_output_0 = Shape(%/transformer/encoder/linear_embed/Add_output_0)
  %/transformer/encoder/Constant_1_output_0 = Constant[value = <Scalar Tensor []>]()
  %/transformer/encoder/Gather_1_output_0 = Gather[axis = 0](%/transformer/encoder/Shape_1_output_0, %/transformer/encoder/Constant_1_output_0)
  %/transformer/encoder/Constant_2_output_0 = Constant[value = <Scalar Tensor []>]()
  %/transformer/encoder/Constant_3_output_0 = Constant[value = <Tensor>]()
  %/transformer/encoder/Unsqueeze_output_0 = Unsqueeze(%/transformer/encoder/Gather_output_0, %/transformer/encoder/Constant_3_output_0)
  %/transformer/encoder/Constant_4_output_0 = Constant[value = <Tensor>]()
  %/transformer/encoder/Constant_5_output_0 = Constant[value = <Tensor>]()
  %/transformer/encoder/Unsqueeze_1_output_0 = Unsqueeze(%/transformer/encoder/Gather_1_output_0, %/transformer/encoder/Constant_5_output_0)
  %/transformer/encoder/Concat_output_0 = Concat[axis = 0](%/transformer/encoder/Unsqueeze_output_0, %/transformer/encoder/Constant_4_output_0, %/transformer/encoder/Unsqueeze_1_output_0)
  %/transformer/encoder/Constant_6_output_0 = Constant[value = <Tensor>]()
  %/transformer/encoder/Reshape_output_0 = Reshape[allowzero = 0](%/transformer/encoder/Concat_output_0, %/transformer/encoder/Constant_6_output_0)
  %/transformer/encoder/Shape_2_output_0 = Shape(%/transformer/encoder/Reshape_output_0)
  %/transformer/encoder/ConstantOfShape_output_0 = ConstantOfShape[value = <Tensor>](%/transformer/encoder/Shape_2_output_0)
  %/transformer/encoder/Constant_7_output_0 = Constant[value = <Scalar Tensor []>]()
  %/transformer/encoder/Mul_output_0 = Mul(%/transformer/encoder/ConstantOfShape_output_0, %/transformer/encoder/Constant_7_output_0)
  %/transformer/encoder/Equal_output_0 = Equal(%/transformer/encoder/Reshape_output_0, %/transformer/encoder/Mul_output_0)
  %/transformer/encoder/Where_output_0 = Where(%/transformer/encoder/Equal_output_0, %/transformer/encoder/ConstantOfShape_output_0, %/transformer/encoder/Reshape_output_0)
  %/transformer/encoder/Expand_output_0 = Expand(%transformer.encoder.registers, %/transformer/encoder/Where_output_0)
  %/transformer/encoder/Concat_1_output_0 = Concat[axis = -2](%/transformer/encoder/Expand_output_0, %/transformer/encoder/linear_embed/Add_output_0)
  %/transformer/encoder/layers.0/attn/norm/ReduceMean_output_0 = ReduceMean[axes = [-1]](%/transformer/encoder/Concat_1_output_0)
  %/transformer/encoder/layers.0/attn/norm/Sub_output_0 = Sub(%/transformer/encoder/Concat_1_output_0, %/transformer/encoder/layers.0/attn/norm/ReduceMean_output_0)
  %/transformer/encoder/layers.0/attn/norm/Constant_output_0 = Constant[value = <Scalar Tensor []>]()
  %/transformer/encoder/layers.0/attn/norm/Pow_output_0 = Pow(%/transformer/encoder/layers.0/attn/norm/Sub_output_0, %/transformer/encoder/layers.0/attn/norm/Constant_output_0)
  %/transformer/encoder/layers.0/attn/norm/ReduceMean_1_output_0 = ReduceMean[axes = [-1]](%/transformer/encoder/layers.0/attn/norm/Pow_output_0)
  %/transformer/encoder/layers.0/attn/norm/Constant_1_output_0 = Constant[value = <Scalar Tensor []>]()
  %/transformer/encoder/layers.0/attn/norm/Add_output_0 = Add(%/transformer/encoder/layers.0/attn/norm/ReduceMean_1_output_0, %/transformer/encoder/layers.0/attn/norm/Constant_1_output_0)
  %/transformer/encoder/layers.0/attn/norm/Sqrt_output_0 = Sqrt(%/transformer/encoder/layers.0/attn/norm/Add_output_0)
  %/transformer/encoder/layers.0/attn/norm/Div_output_0 = Div(%/transformer/encoder/layers.0/attn/norm/Sub_output_0, %/transformer/encoder/layers.0/attn/norm/Sqrt_output_0)
  %/transformer/encoder/layers.0/attn/norm/Mul_output_0 = Mul(%/transformer/encoder/layers.0/attn/norm/Div_output_0, %transformer.encoder.layers.0.attn.norm.weight)
  %/transformer/encoder/layers.0/attn/norm/Add_1_output_0 = Add(%/transformer/encoder/layers.0/attn/norm/Mul_output_0, %transformer.encoder.layers.0.attn.norm.bias)
  %/transformer/encoder/layers.0/attn/fn/Shape_output_0 = Shape(%/transformer/encoder/layers.0/attn/norm/Add_1_output_0)
  %/transformer/encoder/layers.0/attn/fn/Constant_output_0 = Constant[value = <Scalar Tensor []>]()
  %/transformer/encoder/layers.0/attn/fn/Gather_output_0 = Gather[axis = 0](%/transformer/encoder/layers.0/attn/fn/Shape_output_0, %/transformer/encoder/layers.0/attn/fn/Constant_output_0)
  %/transformer/encoder/layers.0/attn/fn/MatMul_output_0 = MatMul(%/transformer/encoder/layers.0/attn/norm/Add_1_output_0, %onnx::MatMul_17275)
  %/transformer/encoder/layers.0/attn/fn/Add_output_0 = Add(%transformer.encoder.layers.0.attn.fn.attn_in_b, %/transformer/encoder/layers.0/attn/fn/MatMul_output_0)
  %/transformer/encoder/layers.0/attn/fn/Shape_1_output_0 = Shape(%/transformer/encoder/layers.0/attn/fn/Add_output_0)
  %/transformer/encoder/layers.0/attn/fn/Constant_1_output_0 = Constant[value = <Tensor>]()
  %/transformer/encoder/layers.0/attn/fn/Gather_1_output_0 = Gather[axis = 0](%/transformer/encoder/layers.0/attn/fn/Shape_1_output_0, %/transformer/encoder/layers.0/attn/fn/Constant_1_output_0)
  %/transformer/encoder/layers.0/attn/fn/Constant_2_output_0 = Constant[value = <Tensor>]()
  %/transformer/encoder/layers.0/attn/fn/Constant_3_output_0 = Constant[value = <Tensor>]()
  %/transformer/encoder/layers.0/attn/fn/Add_1_output_0 = Add(%/transformer/encoder/layers.0/attn/fn/Gather_1_output_0, %/transformer/encoder/layers.0/attn/fn/Constant_3_output_0)
  %/transformer/encoder/layers.0/attn/fn/Constant_4_output_0 = Constant[value = <Tensor>]()
  %/transformer/encoder/layers.0/attn/fn/Div_output_0 = Div(%/transformer/encoder/layers.0/attn/fn/Add_1_output_0, %/transformer/encoder/layers.0/attn/fn/Constant_4_output_0)
  %/transformer/encoder/layers.0/attn/fn/Constant_5_output_0 = Constant[value = <Tensor>]()
  %/transformer/encoder/layers.0/attn/fn/Mul_output_0 = Mul(%/transformer/encoder/layers.0/attn/fn/Div_output_0, %/transformer/encoder/layers.0/attn/fn/Constant_5_output_0)
  %/transformer/encoder/layers.0/attn/fn/Slice_output_0 = Slice(%/transformer/encoder/layers.0/attn/fn/Add_output_0, %/transformer/encoder/layers.0/attn/fn/Constant_2_output_0, %/transformer/encoder/layers.0/attn/fn/Mul_output_0, %/transformer/encoder/layers.0/attn/fn/Constant_1_output_0)
  %/transformer/encoder/layers.0/attn/fn/Constant_6_output_0 = Constant[value = <Tensor>]()
  %/transformer/encoder/layers.0/attn/fn/Mul_1_output_0 = Mul(%/transformer/encoder/layers.0/attn/fn/Div_output_0, %/transformer/encoder/layers.0/attn/fn/Constant_6_output_0)
  %/transformer/encoder/layers.0/attn/fn/Slice_1_output_0 = Slice(%/transformer/encoder/layers.0/attn/fn/Add_output_0, %/transformer/encoder/layers.0/attn/fn/Mul_output_0, %/transformer/encoder/layers.0/attn/fn/Mul_1_output_0, %/transformer/encoder/layers.0/attn/fn/Constant_1_output_0)
  %/transformer/encoder/layers.0/attn/fn/Constant_7_output_0 = Constant[value = <Tensor>]()
  %/transformer/encoder/layers.0/attn/fn/Mul_2_output_0 = Mul(%/transformer/encoder/layers.0/attn/fn/Div_output_0, %/transformer/encoder/layers.0/attn/fn/Constant_7_output_0)
  %/transformer/encoder/layers.0/attn/fn/Slice_2_output_0 = Slice(%/transformer/encoder/layers.0/attn/fn/Add_output_0, %/transformer/encoder/layers.0/attn/fn/Mul_1_output_0, %/transformer/encoder/layers.0/attn/fn/Mul_2_output_0, %/transformer/encoder/layers.0/attn/fn/Constant_1_output_0)
  %onnx::Unsqueeze_390 = Constant[value = <Tensor>]()
  %/transformer/encoder/layers.0/attn/fn/Unsqueeze_output_0 = Unsqueeze(%/transformer/encoder/layers.0/attn/fn/Gather_output_0, %onnx::Unsqueeze_390)
  %/transformer/encoder/layers.0/attn/fn/Constant_8_output_0 = Constant[value = <Tensor>]()
  %/transformer/encoder/layers.0/attn/fn/Constant_9_output_0 = Constant[value = <Tensor>]()
  %/transformer/encoder/layers.0/attn/fn/Constant_10_output_0 = Constant[value = <Tensor>]()
  %/transformer/encoder/layers.0/attn/fn/Concat_output_0 = Concat[axis = 0](%/transformer/encoder/layers.0/attn/fn/Unsqueeze_output_0, %/transformer/encoder/layers.0/attn/fn/Constant_8_output_0, %/transformer/encoder/layers.0/attn/fn/Constant_9_output_0, %/transformer/encoder/layers.0/attn/fn/Constant_10_output_0)
  %onnx::Unsqueeze_399 = Constant[value = <Tensor>]()
  %/transformer/encoder/layers.0/attn/fn/Unsqueeze_1_output_0 = Unsqueeze(%/transformer/encoder/layers.0/attn/fn/Gather_output_0, %onnx::Unsqueeze_399)
  %/transformer/encoder/layers.0/attn/fn/Constant_11_output_0 = Constant[value = <Tensor>]()
  %/transformer/encoder/layers.0/attn/fn/Constant_12_output_0 = Constant[value = <Tensor>]()
  %/transformer/encoder/layers.0/attn/fn/Constant_13_output_0 = Constant[value = <Tensor>]()
  %/transformer/encoder/layers.0/attn/fn/Concat_1_output_0 = Concat[axis = 0](%/transformer/encoder/layers.0/attn/fn/Unsqueeze_1_output_0, %/transformer/encoder/layers.0/attn/fn/Constant_11_output_0, %/transformer/encoder/layers.0/attn/fn/Constant_12_output_0, %/transformer/encoder/layers.0/attn/fn/Constant_13_output_0)
  %onnx::Unsqueeze_408 = Constant[value = <Tensor>]()
  %/transformer/encoder/layers.0/attn/fn/Unsqueeze_2_output_0 = Unsqueeze(%/transformer/encoder/layers.0/attn/fn/Gather_output_0, %onnx::Unsqueeze_408)
  %/transformer/encoder/layers.0/attn/fn/Constant_14_output_0 = Constant[value = <Tensor>]()
  %/transformer/encoder/layers.0/attn/fn/Constant_15_output_0 = Constant[value = <Tensor>]()
  %/transformer/encoder/layers.0/attn/fn/Constant_16_output_0 = Constant[value = <Tensor>]()
  %/transformer/encoder/layers.0/attn/fn/Concat_2_output_0 = Concat[axis = 0](%/transformer/encoder/layers.0/attn/fn/Unsqueeze_2_output_0, %/transformer/encoder/layers.0/attn/fn/Constant_14_output_0, %/transformer/encoder/layers.0/attn/fn/Constant_15_output_0, %/transformer/encoder/layers.0/attn/fn/Constant_16_output_0)
  %/transformer/encoder/layers.0/attn/fn/Reshape_output_0 = Reshape[allowzero = 0](%/transformer/encoder/layers.0/attn/fn/Slice_output_0, %/transformer/encoder/layers.0/attn/fn/Concat_output_0)
  %/transformer/encoder/layers.0/attn/fn/Transpose_output_0 = Transpose[perm = [0, 2, 1, 3]](%/transformer/encoder/layers.0/attn/fn/Reshape_output_0)
  %/transformer/encoder/layers.0/attn/fn/Reshape_1_output_0 = Reshape[allowzero = 0](%/transformer/encoder/layers.0/attn/fn/Slice_1_output_0, %/transformer/encoder/layers.0/attn/fn/Concat_1_output_0)
  %/transformer/encoder/layers.0/attn/fn/Reshape_2_output_0 = Reshape[allowzero = 0](%/transformer/encoder/layers.0/attn/fn/Slice_2_output_0, %/transformer/encoder/layers.0/attn/fn/Concat_2_output_0)
  %/transformer/encoder/layers.0/attn/fn/Transpose_1_output_0 = Transpose[perm = [0, 2, 1, 3]](%/transformer/encoder/layers.0/attn/fn/Reshape_2_output_0)
  %/transformer/encoder/layers.0/attn/fn/Shape_2_output_0 = Shape(%/transformer/encoder/layers.0/attn/fn/Transpose_output_0)
  %/transformer/encoder/layers.0/attn/fn/Constant_17_output_0 = Constant[value = <Tensor>]()
  %/transformer/encoder/layers.0/attn/fn/Constant_18_output_0 = Constant[value = <Tensor>]()
  %/transformer/encoder/layers.0/attn/fn/Slice_3_output_0 = Slice(%/transformer/encoder/layers.0/attn/fn/Shape_2_output_0, %/transformer/encoder/layers.0/attn/fn/Constant_17_output_0, %/transformer/encoder/layers.0/attn/fn/Constant_18_output_0)
  %/transformer/encoder/layers.0/attn/fn/Cast_output_0 = Cast[to = 1](%/transformer/encoder/layers.0/attn/fn/Slice_3_output_0)
  %/transformer/encoder/layers.0/attn/fn/Sqrt_output_0 = Sqrt(%/transformer/encoder/layers.0/attn/fn/Cast_output_0)
  %/transformer/encoder/layers.0/attn/fn/Constant_19_output_0 = Constant[value = <Tensor>]()
  %/transformer/encoder/layers.0/attn/fn/Div_1_output_0 = Div(%/transformer/encoder/layers.0/attn/fn/Constant_19_output_0, %/transformer/encoder/layers.0/attn/fn/Sqrt_output_0)
  %/transformer/encoder/layers.0/attn/fn/Cast_1_output_0 = Cast[to = 1](%/transformer/encoder/layers.0/attn/fn/Div_1_output_0)
  %/transformer/encoder/layers.0/attn/fn/Transpose_2_output_0 = Transpose[perm = [0, 2, 3, 1]](%/transformer/encoder/layers.0/attn/fn/Reshape_1_output_0)
  %/transformer/encoder/layers.0/attn/fn/Sqrt_1_output_0 = Sqrt(%/transformer/encoder/layers.0/attn/fn/Cast_1_output_0)
  %/transformer/encoder/layers.0/attn/fn/Mul_3_output_0 = Mul(%/transformer/encoder/layers.0/attn/fn/Transpose_output_0, %/transformer/encoder/layers.0/attn/fn/Sqrt_1_output_0)
  %/transformer/encoder/layers.0/attn/fn/Sqrt_2_output_0 = Sqrt(%/transformer/encoder/layers.0/attn/fn/Cast_1_output_0)
  %/transformer/encoder/layers.0/attn/fn/Mul_4_output_0 = Mul(%/transformer/encoder/layers.0/attn/fn/Transpose_2_output_0, %/transformer/encoder/layers.0/attn/fn/Sqrt_2_output_0)
  %/transformer/encoder/layers.0/attn/fn/MatMul_1_output_0 = MatMul(%/transformer/encoder/layers.0/attn/fn/Mul_3_output_0, %/transformer/encoder/layers.0/attn/fn/Mul_4_output_0)
  %/transformer/encoder/layers.0/attn/fn/Softmax_output_0 = Softmax[axis = -1](%/transformer/encoder/layers.0/attn/fn/MatMul_1_output_0)
  %/transformer/encoder/layers.0/attn/fn/MatMul_2_output_0 = MatMul(%/transformer/encoder/layers.0/attn/fn/Softmax_output_0, %/transformer/encoder/layers.0/attn/fn/Transpose_1_output_0)
  %/transformer/encoder/layers.0/attn/fn/Transpose_3_output_0 = Transpose[perm = [0, 2, 1, 3]](%/transformer/encoder/layers.0/attn/fn/MatMul_2_output_0)
  %onnx::Unsqueeze_442 = Constant[value = <Tensor>]()
  %/transformer/encoder/layers.0/attn/fn/Unsqueeze_3_output_0 = Unsqueeze(%/transformer/encoder/layers.0/attn/fn/Gather_output_0, %onnx::Unsqueeze_442)
  %/transformer/encoder/layers.0/attn/fn/Constant_20_output_0 = Constant[value = <Tensor>]()
  %/transformer/encoder/layers.0/attn/fn/Constant_21_output_0 = Constant[value = <Tensor>]()
  %/transformer/encoder/layers.0/attn/fn/Concat_3_output_0 = Concat[axis = 0](%/transformer/encoder/layers.0/attn/fn/Unsqueeze_3_output_0, %/transformer/encoder/layers.0/attn/fn/Constant_20_output_0, %/transformer/encoder/layers.0/attn/fn/Constant_21_output_0)
  %/transformer/encoder/layers.0/attn/fn/Reshape_3_output_0 = Reshape[allowzero = 0](%/transformer/encoder/layers.0/attn/fn/Transpose_3_output_0, %/transformer/encoder/layers.0/attn/fn/Concat_3_output_0)
  %/transformer/encoder/layers.0/attn/fn/attn_out/MatMul_output_0 = MatMul(%/transformer/encoder/layers.0/attn/fn/Reshape_3_output_0, %onnx::MatMul_17287)
  %/transformer/encoder/layers.0/attn/fn/attn_out/Add_output_0 = Add(%transformer.encoder.layers.0.attn.fn.attn_out.bias, %/transformer/encoder/layers.0/attn/fn/attn_out/MatMul_output_0)
  %/transformer/encoder/layers.0/attn/ls/Mul_output_0 = Mul(%/transformer/encoder/layers.0/attn/fn/attn_out/Add_output_0, %transformer.encoder.layers.0.attn.ls.gamma)
  %/transformer/encoder/layers.0/attn/Add_output_0 = Add(%/transformer/encoder/layers.0/attn/ls/Mul_output_0, %/transformer/encoder/Concat_1_output_0)
  %/transformer/encoder/layers.0/ff/norm/ReduceMean_output_0 = ReduceMean[axes = [-1]](%/transformer/encoder/layers.0/attn/Add_output_0)
  %/transformer/encoder/layers.0/ff/norm/Sub_output_0 = Sub(%/transformer/encoder/layers.0/attn/Add_output_0, %/transformer/encoder/layers.0/ff/norm/ReduceMean_output_0)
  %/transformer/encoder/layers.0/ff/norm/Constant_output_0 = Constant[value = <Scalar Tensor []>]()
  %/transformer/encoder/layers.0/ff/norm/Pow_output_0 = Pow(%/transformer/encoder/layers.0/ff/norm/Sub_output_0, %/transformer/encoder/layers.0/ff/norm/Constant_output_0)
  %/transformer/encoder/layers.0/ff/norm/ReduceMean_1_output_0 = ReduceMean[axes = [-1]](%/transformer/encoder/layers.0/ff/norm/Pow_output_0)
  %/transformer/encoder/layers.0/ff/norm/Constant_1_output_0 = Constant[value = <Scalar Tensor []>]()
  %/transformer/encoder/layers.0/ff/norm/Add_output_0 = Add(%/transformer/encoder/layers.0/ff/norm/ReduceMean_1_output_0, %/transformer/encoder/layers.0/ff/norm/Constant_1_output_0)
  %/transformer/encoder/layers.0/ff/norm/Sqrt_output_0 = Sqrt(%/transformer/encoder/layers.0/ff/norm/Add_output_0)
  %/transformer/encoder/layers.0/ff/norm/Div_output_0 = Div(%/transformer/encoder/layers.0/ff/norm/Sub_output_0, %/transformer/encoder/layers.0/ff/norm/Sqrt_output_0)
  %/transformer/encoder/layers.0/ff/norm/Mul_output_0 = Mul(%/transformer/encoder/layers.0/ff/norm/Div_output_0, %transformer.encoder.layers.0.ff.norm.weight)
  %/transformer/encoder/layers.0/ff/norm/Add_1_output_0 = Add(%/transformer/encoder/layers.0/ff/norm/Mul_output_0, %transformer.encoder.layers.0.ff.norm.bias)
  %/transformer/encoder/layers.0/ff/fn/lin1/MatMul_output_0 = MatMul(%/transformer/encoder/layers.0/ff/norm/Add_1_output_0, %onnx::MatMul_17288)
  %/transformer/encoder/layers.0/ff/fn/lin1/Add_output_0 = Add(%transformer.encoder.layers.0.ff.fn.lin1.bias, %/transformer/encoder/layers.0/ff/fn/lin1/MatMul_output_0)
  %/transformer/encoder/layers.0/ff/fn/Shape_output_0 = Shape(%/transformer/encoder/layers.0/ff/fn/lin1/Add_output_0)
  %/transformer/encoder/layers.0/ff/fn/Constant_output_0 = Constant[value = <Tensor>]()
  %/transformer/encoder/layers.0/ff/fn/Gather_output_0 = Gather[axis = 0](%/transformer/encoder/layers.0/ff/fn/Shape_output_0, %/transformer/encoder/layers.0/ff/fn/Constant_output_0)
  %/transformer/encoder/layers.0/ff/fn/Constant_1_output_0 = Constant[value = <Tensor>]()
  %/transformer/encoder/layers.0/ff/fn/Constant_2_output_0 = Constant[value = <Tensor>]()
  %/transformer/encoder/layers.0/ff/fn/Add_output_0 = Add(%/transformer/encoder/layers.0/ff/fn/Gather_output_0, %/transformer/encoder/layers.0/ff/fn/Constant_2_output_0)
  %/transformer/encoder/layers.0/ff/fn/Constant_3_output_0 = Constant[value = <Tensor>]()
  %/transformer/encoder/layers.0/ff/fn/Div_output_0 = Div(%/transformer/encoder/layers.0/ff/fn/Add_output_0, %/transformer/encoder/layers.0/ff/fn/Constant_3_output_0)
  %/transformer/encoder/layers.0/ff/fn/Constant_4_output_0 = Constant[value = <Tensor>]()
  %/transformer/encoder/layers.0/ff/fn/Mul_output_0 = Mul(%/transformer/encoder/layers.0/ff/fn/Div_output_0, %/transformer/encoder/layers.0/ff/fn/Constant_4_output_0)
  %/transformer/encoder/layers.0/ff/fn/Slice_output_0 = Slice(%/transformer/encoder/layers.0/ff/fn/lin1/Add_output_0, %/transformer/encoder/layers.0/ff/fn/Constant_1_output_0, %/transformer/encoder/layers.0/ff/fn/Mul_output_0, %/transformer/encoder/layers.0/ff/fn/Constant_output_0)
  %/transformer/encoder/layers.0/ff/fn/Constant_5_output_0 = Constant[value = <Tensor>]()
  %/transformer/encoder/layers.0/ff/fn/Mul_1_output_0 = Mul(%/transformer/encoder/layers.0/ff/fn/Div_output_0, %/transformer/encoder/layers.0/ff/fn/Constant_5_output_0)
  %/transformer/encoder/layers.0/ff/fn/Slice_1_output_0 = Slice(%/transformer/encoder/layers.0/ff/fn/lin1/Add_output_0, %/transformer/encoder/layers.0/ff/fn/Mul_output_0, %/transformer/encoder/layers.0/ff/fn/Mul_1_output_0, %/transformer/encoder/layers.0/ff/fn/Constant_output_0)
  %/transformer/encoder/layers.0/ff/fn/Sigmoid_output_0 = Sigmoid(%/transformer/encoder/layers.0/ff/fn/Slice_output_0)
  %/transformer/encoder/layers.0/ff/fn/Mul_2_output_0 = Mul(%/transformer/encoder/layers.0/ff/fn/Slice_output_0, %/transformer/encoder/layers.0/ff/fn/Sigmoid_output_0)
  %/transformer/encoder/layers.0/ff/fn/Mul_3_output_0 = Mul(%/transformer/encoder/layers.0/ff/fn/Mul_2_output_0, %/transformer/encoder/layers.0/ff/fn/Slice_1_output_0)
  %/transformer/encoder/layers.0/ff/fn/lin2/MatMul_output_0 = MatMul(%/transformer/encoder/layers.0/ff/fn/Mul_3_output_0, %onnx::MatMul_17289)
  %/transformer/encoder/layers.0/ff/fn/lin2/Add_output_0 = Add(%transformer.encoder.layers.0.ff.fn.lin2.bias, %/transformer/encoder/layers.0/ff/fn/lin2/MatMul_output_0)
  %/transformer/encoder/layers.0/ff/ls/Mul_output_0 = Mul(%/transformer/encoder/layers.0/ff/fn/lin2/Add_output_0, %transformer.encoder.layers.0.ff.ls.gamma)
  %/transformer/encoder/layers.0/ff/Add_output_0 = Add(%/transformer/encoder/layers.0/ff/ls/Mul_output_0, %/transformer/encoder/layers.0/attn/Add_output_0)
  %/transformer/encoder/layers.1/attn/norm/ReduceMean_output_0 = ReduceMean[axes = [-1]](%/transformer/encoder/layers.0/ff/Add_output_0)
  %/transformer/encoder/layers.1/attn/norm/Sub_output_0 = Sub(%/transformer/encoder/layers.0/ff/Add_output_0, %/transformer/encoder/layers.1/attn/norm/ReduceMean_output_0)
  %/transformer/encoder/layers.1/attn/norm/Constant_output_0 = Constant[value = <Scalar Tensor []>]()
  %/transformer/encoder/layers.1/attn/norm/Pow_output_0 = Pow(%/transformer/encoder/layers.1/attn/norm/Sub_output_0, %/transformer/encoder/layers.1/attn/norm/Constant_output_0)
  %/transformer/encoder/layers.1/attn/norm/ReduceMean_1_output_0 = ReduceMean[axes = [-1]](%/transformer/encoder/layers.1/attn/norm/Pow_output_0)
  %/transformer/encoder/layers.1/attn/norm/Constant_1_output_0 = Constant[value = <Scalar Tensor []>]()
  %/transformer/encoder/layers.1/attn/norm/Add_output_0 = Add(%/transformer/encoder/layers.1/attn/norm/ReduceMean_1_output_0, %/transformer/encoder/layers.1/attn/norm/Constant_1_output_0)
  %/transformer/encoder/layers.1/attn/norm/Sqrt_output_0 = Sqrt(%/transformer/encoder/layers.1/attn/norm/Add_output_0)
  %/transformer/encoder/layers.1/attn/norm/Div_output_0 = Div(%/transformer/encoder/layers.1/attn/norm/Sub_output_0, %/transformer/encoder/layers.1/attn/norm/Sqrt_output_0)
  %/transformer/encoder/layers.1/attn/norm/Mul_output_0 = Mul(%/transformer/encoder/layers.1/attn/norm/Div_output_0, %transformer.encoder.layers.1.attn.norm.weight)
  %/transformer/encoder/layers.1/attn/norm/Add_1_output_0 = Add(%/transformer/encoder/layers.1/attn/norm/Mul_output_0, %transformer.encoder.layers.1.attn.norm.bias)
  %/transformer/encoder/layers.1/attn/fn/Shape_output_0 = Shape(%/transformer/encoder/layers.1/attn/norm/Add_1_output_0)
  %/transformer/encoder/layers.1/attn/fn/Constant_output_0 = Constant[value = <Scalar Tensor []>]()
  %/transformer/encoder/layers.1/attn/fn/Gather_output_0 = Gather[axis = 0](%/transformer/encoder/layers.1/attn/fn/Shape_output_0, %/transformer/encoder/layers.1/attn/fn/Constant_output_0)
  %/transformer/encoder/layers.1/attn/fn/MatMul_output_0 = MatMul(%/transformer/encoder/layers.1/attn/norm/Add_1_output_0, %onnx::MatMul_17290)
  %/transformer/encoder/layers.1/attn/fn/Add_output_0 = Add(%transformer.encoder.layers.1.attn.fn.attn_in_b, %/transformer/encoder/layers.1/attn/fn/MatMul_output_0)
  %/transformer/encoder/layers.1/attn/fn/Shape_1_output_0 = Shape(%/transformer/encoder/layers.1/attn/fn/Add_output_0)
  %/transformer/encoder/layers.1/attn/fn/Constant_1_output_0 = Constant[value = <Tensor>]()
  %/transformer/encoder/layers.1/attn/fn/Gather_1_output_0 = Gather[axis = 0](%/transformer/encoder/layers.1/attn/fn/Shape_1_output_0, %/transformer/encoder/layers.1/attn/fn/Constant_1_output_0)
  %/transformer/encoder/layers.1/attn/fn/Constant_2_output_0 = Constant[value = <Tensor>]()
  %/transformer/encoder/layers.1/attn/fn/Constant_3_output_0 = Constant[value = <Tensor>]()
  %/transformer/encoder/layers.1/attn/fn/Add_1_output_0 = Add(%/transformer/encoder/layers.1/attn/fn/Gather_1_output_0, %/transformer/encoder/layers.1/attn/fn/Constant_3_output_0)
  %/transformer/encoder/layers.1/attn/fn/Constant_4_output_0 = Constant[value = <Tensor>]()
  %/transformer/encoder/layers.1/attn/fn/Div_output_0 = Div(%/transformer/encoder/layers.1/attn/fn/Add_1_output_0, %/transformer/encoder/layers.1/attn/fn/Constant_4_output_0)
  %/transformer/encoder/layers.1/attn/fn/Constant_5_output_0 = Constant[value = <Tensor>]()
  %/transformer/encoder/layers.1/attn/fn/Mul_output_0 = Mul(%/transformer/encoder/layers.1/attn/fn/Div_output_0, %/transformer/encoder/layers.1/attn/fn/Constant_5_output_0)
  %/transformer/encoder/layers.1/attn/fn/Slice_output_0 = Slice(%/transformer/encoder/layers.1/attn/fn/Add_output_0, %/transformer/encoder/layers.1/attn/fn/Constant_2_output_0, %/transformer/encoder/layers.1/attn/fn/Mul_output_0, %/transformer/encoder/layers.1/attn/fn/Constant_1_output_0)
  %/transformer/encoder/layers.1/attn/fn/Constant_6_output_0 = Constant[value = <Tensor>]()
  %/transformer/encoder/layers.1/attn/fn/Mul_1_output_0 = Mul(%/transformer/encoder/layers.1/attn/fn/Div_output_0, %/transformer/encoder/layers.1/attn/fn/Constant_6_output_0)
  %/transformer/encoder/layers.1/attn/fn/Slice_1_output_0 = Slice(%/transformer/encoder/layers.1/attn/fn/Add_output_0, %/transformer/encoder/layers.1/attn/fn/Mul_output_0, %/transformer/encoder/layers.1/attn/fn/Mul_1_output_0, %/transformer/encoder/layers.1/attn/fn/Constant_1_output_0)
  %/transformer/encoder/layers.1/attn/fn/Constant_7_output_0 = Constant[value = <Tensor>]()
  %/transformer/encoder/layers.1/attn/fn/Mul_2_output_0 = Mul(%/transformer/encoder/layers.1/attn/fn/Div_output_0, %/transformer/encoder/layers.1/attn/fn/Constant_7_output_0)
  %/transformer/encoder/layers.1/attn/fn/Slice_2_output_0 = Slice(%/transformer/encoder/layers.1/attn/fn/Add_output_0, %/transformer/encoder/layers.1/attn/fn/Mul_1_output_0, %/transformer/encoder/layers.1/attn/fn/Mul_2_output_0, %/transformer/encoder/layers.1/attn/fn/Constant_1_output_0)
  %onnx::Unsqueeze_525 = Constant[value = <Tensor>]()
  %/transformer/encoder/layers.1/attn/fn/Unsqueeze_output_0 = Unsqueeze(%/transformer/encoder/layers.1/attn/fn/Gather_output_0, %onnx::Unsqueeze_525)
  %/transformer/encoder/layers.1/attn/fn/Constant_8_output_0 = Constant[value = <Tensor>]()
  %/transformer/encoder/layers.1/attn/fn/Constant_9_output_0 = Constant[value = <Tensor>]()
  %/transformer/encoder/layers.1/attn/fn/Constant_10_output_0 = Constant[value = <Tensor>]()
  %/transformer/encoder/layers.1/attn/fn/Concat_output_0 = Concat[axis = 0](%/transformer/encoder/layers.1/attn/fn/Unsqueeze_output_0, %/transformer/encoder/layers.1/attn/fn/Constant_8_output_0, %/transformer/encoder/layers.1/attn/fn/Constant_9_output_0, %/transformer/encoder/layers.1/attn/fn/Constant_10_output_0)
  %onnx::Unsqueeze_534 = Constant[value = <Tensor>]()
  %/transformer/encoder/layers.1/attn/fn/Unsqueeze_1_output_0 = Unsqueeze(%/transformer/encoder/layers.1/attn/fn/Gather_output_0, %onnx::Unsqueeze_534)
  %/transformer/encoder/layers.1/attn/fn/Constant_11_output_0 = Constant[value = <Tensor>]()
  %/transformer/encoder/layers.1/attn/fn/Constant_12_output_0 = Constant[value = <Tensor>]()
  %/transformer/encoder/layers.1/attn/fn/Constant_13_output_0 = Constant[value = <Tensor>]()
  %/transformer/encoder/layers.1/attn/fn/Concat_1_output_0 = Concat[axis = 0](%/transformer/encoder/layers.1/attn/fn/Unsqueeze_1_output_0, %/transformer/encoder/layers.1/attn/fn/Constant_11_output_0, %/transformer/encoder/layers.1/attn/fn/Constant_12_output_0, %/transformer/encoder/layers.1/attn/fn/Constant_13_output_0)
  %onnx::Unsqueeze_543 = Constant[value = <Tensor>]()
  %/transformer/encoder/layers.1/attn/fn/Unsqueeze_2_output_0 = Unsqueeze(%/transformer/encoder/layers.1/attn/fn/Gather_output_0, %onnx::Unsqueeze_543)
  %/transformer/encoder/layers.1/attn/fn/Constant_14_output_0 = Constant[value = <Tensor>]()
  %/transformer/encoder/layers.1/attn/fn/Constant_15_output_0 = Constant[value = <Tensor>]()
  %/transformer/encoder/layers.1/attn/fn/Constant_16_output_0 = Constant[value = <Tensor>]()
  %/transformer/encoder/layers.1/attn/fn/Concat_2_output_0 = Concat[axis = 0](%/transformer/encoder/layers.1/attn/fn/Unsqueeze_2_output_0, %/transformer/encoder/layers.1/attn/fn/Constant_14_output_0, %/transformer/encoder/layers.1/attn/fn/Constant_15_output_0, %/transformer/encoder/layers.1/attn/fn/Constant_16_output_0)
  %/transformer/encoder/layers.1/attn/fn/Reshape_output_0 = Reshape[allowzero = 0](%/transformer/encoder/layers.1/attn/fn/Slice_output_0, %/transformer/encoder/layers.1/attn/fn/Concat_output_0)
  %/transformer/encoder/layers.1/attn/fn/Transpose_output_0 = Transpose[perm = [0, 2, 1, 3]](%/transformer/encoder/layers.1/attn/fn/Reshape_output_0)
  %/transformer/encoder/layers.1/attn/fn/Reshape_1_output_0 = Reshape[allowzero = 0](%/transformer/encoder/layers.1/attn/fn/Slice_1_output_0, %/transformer/encoder/layers.1/attn/fn/Concat_1_output_0)
  %/transformer/encoder/layers.1/attn/fn/Reshape_2_output_0 = Reshape[allowzero = 0](%/transformer/encoder/layers.1/attn/fn/Slice_2_output_0, %/transformer/encoder/layers.1/attn/fn/Concat_2_output_0)
  %/transformer/encoder/layers.1/attn/fn/Transpose_1_output_0 = Transpose[perm = [0, 2, 1, 3]](%/transformer/encoder/layers.1/attn/fn/Reshape_2_output_0)
  %/transformer/encoder/layers.1/attn/fn/Shape_2_output_0 = Shape(%/transformer/encoder/layers.1/attn/fn/Transpose_output_0)
  %/transformer/encoder/layers.1/attn/fn/Constant_17_output_0 = Constant[value = <Tensor>]()
  %/transformer/encoder/layers.1/attn/fn/Constant_18_output_0 = Constant[value = <Tensor>]()
  %/transformer/encoder/layers.1/attn/fn/Slice_3_output_0 = Slice(%/transformer/encoder/layers.1/attn/fn/Shape_2_output_0, %/transformer/encoder/layers.1/attn/fn/Constant_17_output_0, %/transformer/encoder/layers.1/attn/fn/Constant_18_output_0)
  %/transformer/encoder/layers.1/attn/fn/Cast_output_0 = Cast[to = 1](%/transformer/encoder/layers.1/attn/fn/Slice_3_output_0)
  %/transformer/encoder/layers.1/attn/fn/Sqrt_output_0 = Sqrt(%/transformer/encoder/layers.1/attn/fn/Cast_output_0)
  %/transformer/encoder/layers.1/attn/fn/Constant_19_output_0 = Constant[value = <Tensor>]()
  %/transformer/encoder/layers.1/attn/fn/Div_1_output_0 = Div(%/transformer/encoder/layers.1/attn/fn/Constant_19_output_0, %/transformer/encoder/layers.1/attn/fn/Sqrt_output_0)
  %/transformer/encoder/layers.1/attn/fn/Cast_1_output_0 = Cast[to = 1](%/transformer/encoder/layers.1/attn/fn/Div_1_output_0)
  %/transformer/encoder/layers.1/attn/fn/Transpose_2_output_0 = Transpose[perm = [0, 2, 3, 1]](%/transformer/encoder/layers.1/attn/fn/Reshape_1_output_0)
  %/transformer/encoder/layers.1/attn/fn/Sqrt_1_output_0 = Sqrt(%/transformer/encoder/layers.1/attn/fn/Cast_1_output_0)
  %/transformer/encoder/layers.1/attn/fn/Mul_3_output_0 = Mul(%/transformer/encoder/layers.1/attn/fn/Transpose_output_0, %/transformer/encoder/layers.1/attn/fn/Sqrt_1_output_0)
  %/transformer/encoder/layers.1/attn/fn/Sqrt_2_output_0 = Sqrt(%/transformer/encoder/layers.1/attn/fn/Cast_1_output_0)
  %/transformer/encoder/layers.1/attn/fn/Mul_4_output_0 = Mul(%/transformer/encoder/layers.1/attn/fn/Transpose_2_output_0, %/transformer/encoder/layers.1/attn/fn/Sqrt_2_output_0)
  %/transformer/encoder/layers.1/attn/fn/MatMul_1_output_0 = MatMul(%/transformer/encoder/layers.1/attn/fn/Mul_3_output_0, %/transformer/encoder/layers.1/attn/fn/Mul_4_output_0)
  %/transformer/encoder/layers.1/attn/fn/Softmax_output_0 = Softmax[axis = -1](%/transformer/encoder/layers.1/attn/fn/MatMul_1_output_0)
  %/transformer/encoder/layers.1/attn/fn/MatMul_2_output_0 = MatMul(%/transformer/encoder/layers.1/attn/fn/Softmax_output_0, %/transformer/encoder/layers.1/attn/fn/Transpose_1_output_0)
  %/transformer/encoder/layers.1/attn/fn/Transpose_3_output_0 = Transpose[perm = [0, 2, 1, 3]](%/transformer/encoder/layers.1/attn/fn/MatMul_2_output_0)
  %onnx::Unsqueeze_575 = Constant[value = <Tensor>]()
  %/transformer/encoder/layers.1/attn/fn/Unsqueeze_3_output_0 = Unsqueeze(%/transformer/encoder/layers.1/attn/fn/Gather_output_0, %onnx::Unsqueeze_575)
  %/transformer/encoder/layers.1/attn/fn/Constant_20_output_0 = Constant[value = <Tensor>]()
  %/transformer/encoder/layers.1/attn/fn/Constant_21_output_0 = Constant[value = <Tensor>]()
  %/transformer/encoder/layers.1/attn/fn/Concat_3_output_0 = Concat[axis = 0](%/transformer/encoder/layers.1/attn/fn/Unsqueeze_3_output_0, %/transformer/encoder/layers.1/attn/fn/Constant_20_output_0, %/transformer/encoder/layers.1/attn/fn/Constant_21_output_0)
  %/transformer/encoder/layers.1/attn/fn/Reshape_3_output_0 = Reshape[allowzero = 0](%/transformer/encoder/layers.1/attn/fn/Transpose_3_output_0, %/transformer/encoder/layers.1/attn/fn/Concat_3_output_0)
  %/transformer/encoder/layers.1/attn/fn/attn_out/MatMul_output_0 = MatMul(%/transformer/encoder/layers.1/attn/fn/Reshape_3_output_0, %onnx::MatMul_17302)
  %/transformer/encoder/layers.1/attn/fn/attn_out/Add_output_0 = Add(%transformer.encoder.layers.1.attn.fn.attn_out.bias, %/transformer/encoder/layers.1/attn/fn/attn_out/MatMul_output_0)
  %/transformer/encoder/layers.1/attn/ls/Mul_output_0 = Mul(%/transformer/encoder/layers.1/attn/fn/attn_out/Add_output_0, %transformer.encoder.layers.1.attn.ls.gamma)
  %/transformer/encoder/layers.1/attn/Add_output_0 = Add(%/transformer/encoder/layers.1/attn/ls/Mul_output_0, %/transformer/encoder/layers.0/ff/Add_output_0)
  %/transformer/encoder/layers.1/ff/norm/ReduceMean_output_0 = ReduceMean[axes = [-1]](%/transformer/encoder/layers.1/attn/Add_output_0)
  %/transformer/encoder/layers.1/ff/norm/Sub_output_0 = Sub(%/transformer/encoder/layers.1/attn/Add_output_0, %/transformer/encoder/layers.1/ff/norm/ReduceMean_output_0)
  %/transformer/encoder/layers.1/ff/norm/Constant_output_0 = Constant[value = <Scalar Tensor []>]()
  %/transformer/encoder/layers.1/ff/norm/Pow_output_0 = Pow(%/transformer/encoder/layers.1/ff/norm/Sub_output_0, %/transformer/encoder/layers.1/ff/norm/Constant_output_0)
  %/transformer/encoder/layers.1/ff/norm/ReduceMean_1_output_0 = ReduceMean[axes = [-1]](%/transformer/encoder/layers.1/ff/norm/Pow_output_0)
  %/transformer/encoder/layers.1/ff/norm/Constant_1_output_0 = Constant[value = <Scalar Tensor []>]()
  %/transformer/encoder/layers.1/ff/norm/Add_output_0 = Add(%/transformer/encoder/layers.1/ff/norm/ReduceMean_1_output_0, %/transformer/encoder/layers.1/ff/norm/Constant_1_output_0)
  %/transformer/encoder/layers.1/ff/norm/Sqrt_output_0 = Sqrt(%/transformer/encoder/layers.1/ff/norm/Add_output_0)
  %/transformer/encoder/layers.1/ff/norm/Div_output_0 = Div(%/transformer/encoder/layers.1/ff/norm/Sub_output_0, %/transformer/encoder/layers.1/ff/norm/Sqrt_output_0)
  %/transformer/encoder/layers.1/ff/norm/Mul_output_0 = Mul(%/transformer/encoder/layers.1/ff/norm/Div_output_0, %transformer.encoder.layers.1.ff.norm.weight)
  %/transformer/encoder/layers.1/ff/norm/Add_1_output_0 = Add(%/transformer/encoder/layers.1/ff/norm/Mul_output_0, %transformer.encoder.layers.1.ff.norm.bias)
  %/transformer/encoder/layers.1/ff/fn/lin1/MatMul_output_0 = MatMul(%/transformer/encoder/layers.1/ff/norm/Add_1_output_0, %onnx::MatMul_17303)
  %/transformer/encoder/layers.1/ff/fn/lin1/Add_output_0 = Add(%transformer.encoder.layers.1.ff.fn.lin1.bias, %/transformer/encoder/layers.1/ff/fn/lin1/MatMul_output_0)
  %/transformer/encoder/layers.1/ff/fn/Shape_output_0 = Shape(%/transformer/encoder/layers.1/ff/fn/lin1/Add_output_0)
  %/transformer/encoder/layers.1/ff/fn/Constant_output_0 = Constant[value = <Tensor>]()
  %/transformer/encoder/layers.1/ff/fn/Gather_output_0 = Gather[axis = 0](%/transformer/encoder/layers.1/ff/fn/Shape_output_0, %/transformer/encoder/layers.1/ff/fn/Constant_output_0)
  %/transformer/encoder/layers.1/ff/fn/Constant_1_output_0 = Constant[value = <Tensor>]()
  %/transformer/encoder/layers.1/ff/fn/Constant_2_output_0 = Constant[value = <Tensor>]()
  %/transformer/encoder/layers.1/ff/fn/Add_output_0 = Add(%/transformer/encoder/layers.1/ff/fn/Gather_output_0, %/transformer/encoder/layers.1/ff/fn/Constant_2_output_0)
  %/transformer/encoder/layers.1/ff/fn/Constant_3_output_0 = Constant[value = <Tensor>]()
  %/transformer/encoder/layers.1/ff/fn/Div_output_0 = Div(%/transformer/encoder/layers.1/ff/fn/Add_output_0, %/transformer/encoder/layers.1/ff/fn/Constant_3_output_0)
  %/transformer/encoder/layers.1/ff/fn/Constant_4_output_0 = Constant[value = <Tensor>]()
  %/transformer/encoder/layers.1/ff/fn/Mul_output_0 = Mul(%/transformer/encoder/layers.1/ff/fn/Div_output_0, %/transformer/encoder/layers.1/ff/fn/Constant_4_output_0)
  %/transformer/encoder/layers.1/ff/fn/Slice_output_0 = Slice(%/transformer/encoder/layers.1/ff/fn/lin1/Add_output_0, %/transformer/encoder/layers.1/ff/fn/Constant_1_output_0, %/transformer/encoder/layers.1/ff/fn/Mul_output_0, %/transformer/encoder/layers.1/ff/fn/Constant_output_0)
  %/transformer/encoder/layers.1/ff/fn/Constant_5_output_0 = Constant[value = <Tensor>]()
  %/transformer/encoder/layers.1/ff/fn/Mul_1_output_0 = Mul(%/transformer/encoder/layers.1/ff/fn/Div_output_0, %/transformer/encoder/layers.1/ff/fn/Constant_5_output_0)
  %/transformer/encoder/layers.1/ff/fn/Slice_1_output_0 = Slice(%/transformer/encoder/layers.1/ff/fn/lin1/Add_output_0, %/transformer/encoder/layers.1/ff/fn/Mul_output_0, %/transformer/encoder/layers.1/ff/fn/Mul_1_output_0, %/transformer/encoder/layers.1/ff/fn/Constant_output_0)
  %/transformer/encoder/layers.1/ff/fn/Sigmoid_output_0 = Sigmoid(%/transformer/encoder/layers.1/ff/fn/Slice_output_0)
  %/transformer/encoder/layers.1/ff/fn/Mul_2_output_0 = Mul(%/transformer/encoder/layers.1/ff/fn/Slice_output_0, %/transformer/encoder/layers.1/ff/fn/Sigmoid_output_0)
  %/transformer/encoder/layers.1/ff/fn/Mul_3_output_0 = Mul(%/transformer/encoder/layers.1/ff/fn/Mul_2_output_0, %/transformer/encoder/layers.1/ff/fn/Slice_1_output_0)
  %/transformer/encoder/layers.1/ff/fn/lin2/MatMul_output_0 = MatMul(%/transformer/encoder/layers.1/ff/fn/Mul_3_output_0, %onnx::MatMul_17304)
  %/transformer/encoder/layers.1/ff/fn/lin2/Add_output_0 = Add(%transformer.encoder.layers.1.ff.fn.lin2.bias, %/transformer/encoder/layers.1/ff/fn/lin2/MatMul_output_0)
  %/transformer/encoder/layers.1/ff/ls/Mul_output_0 = Mul(%/transformer/encoder/layers.1/ff/fn/lin2/Add_output_0, %transformer.encoder.layers.1.ff.ls.gamma)
  %/transformer/encoder/layers.1/ff/Add_output_0 = Add(%/transformer/encoder/layers.1/ff/ls/Mul_output_0, %/transformer/encoder/layers.1/attn/Add_output_0)
  %/transformer/encoder/layers.2/attn/norm/ReduceMean_output_0 = ReduceMean[axes = [-1]](%/transformer/encoder/layers.1/ff/Add_output_0)
  %/transformer/encoder/layers.2/attn/norm/Sub_output_0 = Sub(%/transformer/encoder/layers.1/ff/Add_output_0, %/transformer/encoder/layers.2/attn/norm/ReduceMean_output_0)
  %/transformer/encoder/layers.2/attn/norm/Constant_output_0 = Constant[value = <Scalar Tensor []>]()
  %/transformer/encoder/layers.2/attn/norm/Pow_output_0 = Pow(%/transformer/encoder/layers.2/attn/norm/Sub_output_0, %/transformer/encoder/layers.2/attn/norm/Constant_output_0)
  %/transformer/encoder/layers.2/attn/norm/ReduceMean_1_output_0 = ReduceMean[axes = [-1]](%/transformer/encoder/layers.2/attn/norm/Pow_output_0)
  %/transformer/encoder/layers.2/attn/norm/Constant_1_output_0 = Constant[value = <Scalar Tensor []>]()
  %/transformer/encoder/layers.2/attn/norm/Add_output_0 = Add(%/transformer/encoder/layers.2/attn/norm/ReduceMean_1_output_0, %/transformer/encoder/layers.2/attn/norm/Constant_1_output_0)
  %/transformer/encoder/layers.2/attn/norm/Sqrt_output_0 = Sqrt(%/transformer/encoder/layers.2/attn/norm/Add_output_0)
  %/transformer/encoder/layers.2/attn/norm/Div_output_0 = Div(%/transformer/encoder/layers.2/attn/norm/Sub_output_0, %/transformer/encoder/layers.2/attn/norm/Sqrt_output_0)
  %/transformer/encoder/layers.2/attn/norm/Mul_output_0 = Mul(%/transformer/encoder/layers.2/attn/norm/Div_output_0, %transformer.encoder.layers.2.attn.norm.weight)
  %/transformer/encoder/layers.2/attn/norm/Add_1_output_0 = Add(%/transformer/encoder/layers.2/attn/norm/Mul_output_0, %transformer.encoder.layers.2.attn.norm.bias)
  %/transformer/encoder/layers.2/attn/fn/Shape_output_0 = Shape(%/transformer/encoder/layers.2/attn/norm/Add_1_output_0)
  %/transformer/encoder/layers.2/attn/fn/Constant_output_0 = Constant[value = <Scalar Tensor []>]()
  %/transformer/encoder/layers.2/attn/fn/Gather_output_0 = Gather[axis = 0](%/transformer/encoder/layers.2/attn/fn/Shape_output_0, %/transformer/encoder/layers.2/attn/fn/Constant_output_0)
  %/transformer/encoder/layers.2/attn/fn/MatMul_output_0 = MatMul(%/transformer/encoder/layers.2/attn/norm/Add_1_output_0, %onnx::MatMul_17305)
  %/transformer/encoder/layers.2/attn/fn/Add_output_0 = Add(%transformer.encoder.layers.2.attn.fn.attn_in_b, %/transformer/encoder/layers.2/attn/fn/MatMul_output_0)
  %/transformer/encoder/layers.2/attn/fn/Shape_1_output_0 = Shape(%/transformer/encoder/layers.2/attn/fn/Add_output_0)
  %/transformer/encoder/layers.2/attn/fn/Constant_1_output_0 = Constant[value = <Tensor>]()
  %/transformer/encoder/layers.2/attn/fn/Gather_1_output_0 = Gather[axis = 0](%/transformer/encoder/layers.2/attn/fn/Shape_1_output_0, %/transformer/encoder/layers.2/attn/fn/Constant_1_output_0)
  %/transformer/encoder/layers.2/attn/fn/Constant_2_output_0 = Constant[value = <Tensor>]()
  %/transformer/encoder/layers.2/attn/fn/Constant_3_output_0 = Constant[value = <Tensor>]()
  %/transformer/encoder/layers.2/attn/fn/Add_1_output_0 = Add(%/transformer/encoder/layers.2/attn/fn/Gather_1_output_0, %/transformer/encoder/layers.2/attn/fn/Constant_3_output_0)
  %/transformer/encoder/layers.2/attn/fn/Constant_4_output_0 = Constant[value = <Tensor>]()
  %/transformer/encoder/layers.2/attn/fn/Div_output_0 = Div(%/transformer/encoder/layers.2/attn/fn/Add_1_output_0, %/transformer/encoder/layers.2/attn/fn/Constant_4_output_0)
  %/transformer/encoder/layers.2/attn/fn/Constant_5_output_0 = Constant[value = <Tensor>]()
  %/transformer/encoder/layers.2/attn/fn/Mul_output_0 = Mul(%/transformer/encoder/layers.2/attn/fn/Div_output_0, %/transformer/encoder/layers.2/attn/fn/Constant_5_output_0)
  %/transformer/encoder/layers.2/attn/fn/Slice_output_0 = Slice(%/transformer/encoder/layers.2/attn/fn/Add_output_0, %/transformer/encoder/layers.2/attn/fn/Constant_2_output_0, %/transformer/encoder/layers.2/attn/fn/Mul_output_0, %/transformer/encoder/layers.2/attn/fn/Constant_1_output_0)
  %/transformer/encoder/layers.2/attn/fn/Constant_6_output_0 = Constant[value = <Tensor>]()
  %/transformer/encoder/layers.2/attn/fn/Mul_1_output_0 = Mul(%/transformer/encoder/layers.2/attn/fn/Div_output_0, %/transformer/encoder/layers.2/attn/fn/Constant_6_output_0)
  %/transformer/encoder/layers.2/attn/fn/Slice_1_output_0 = Slice(%/transformer/encoder/layers.2/attn/fn/Add_output_0, %/transformer/encoder/layers.2/attn/fn/Mul_output_0, %/transformer/encoder/layers.2/attn/fn/Mul_1_output_0, %/transformer/encoder/layers.2/attn/fn/Constant_1_output_0)
  %/transformer/encoder/layers.2/attn/fn/Constant_7_output_0 = Constant[value = <Tensor>]()
  %/transformer/encoder/layers.2/attn/fn/Mul_2_output_0 = Mul(%/transformer/encoder/layers.2/attn/fn/Div_output_0, %/transformer/encoder/layers.2/attn/fn/Constant_7_output_0)
  %/transformer/encoder/layers.2/attn/fn/Slice_2_output_0 = Slice(%/transformer/encoder/layers.2/attn/fn/Add_output_0, %/transformer/encoder/layers.2/attn/fn/Mul_1_output_0, %/transformer/encoder/layers.2/attn/fn/Mul_2_output_0, %/transformer/encoder/layers.2/attn/fn/Constant_1_output_0)
  %onnx::Unsqueeze_658 = Constant[value = <Tensor>]()
  %/transformer/encoder/layers.2/attn/fn/Unsqueeze_output_0 = Unsqueeze(%/transformer/encoder/layers.2/attn/fn/Gather_output_0, %onnx::Unsqueeze_658)
  %/transformer/encoder/layers.2/attn/fn/Constant_8_output_0 = Constant[value = <Tensor>]()
  %/transformer/encoder/layers.2/attn/fn/Constant_9_output_0 = Constant[value = <Tensor>]()
  %/transformer/encoder/layers.2/attn/fn/Constant_10_output_0 = Constant[value = <Tensor>]()
  %/transformer/encoder/layers.2/attn/fn/Concat_output_0 = Concat[axis = 0](%/transformer/encoder/layers.2/attn/fn/Unsqueeze_output_0, %/transformer/encoder/layers.2/attn/fn/Constant_8_output_0, %/transformer/encoder/layers.2/attn/fn/Constant_9_output_0, %/transformer/encoder/layers.2/attn/fn/Constant_10_output_0)
  %onnx::Unsqueeze_667 = Constant[value = <Tensor>]()
  %/transformer/encoder/layers.2/attn/fn/Unsqueeze_1_output_0 = Unsqueeze(%/transformer/encoder/layers.2/attn/fn/Gather_output_0, %onnx::Unsqueeze_667)
  %/transformer/encoder/layers.2/attn/fn/Constant_11_output_0 = Constant[value = <Tensor>]()
  %/transformer/encoder/layers.2/attn/fn/Constant_12_output_0 = Constant[value = <Tensor>]()
  %/transformer/encoder/layers.2/attn/fn/Constant_13_output_0 = Constant[value = <Tensor>]()
  %/transformer/encoder/layers.2/attn/fn/Concat_1_output_0 = Concat[axis = 0](%/transformer/encoder/layers.2/attn/fn/Unsqueeze_1_output_0, %/transformer/encoder/layers.2/attn/fn/Constant_11_output_0, %/transformer/encoder/layers.2/attn/fn/Constant_12_output_0, %/transformer/encoder/layers.2/attn/fn/Constant_13_output_0)
  %onnx::Unsqueeze_676 = Constant[value = <Tensor>]()
  %/transformer/encoder/layers.2/attn/fn/Unsqueeze_2_output_0 = Unsqueeze(%/transformer/encoder/layers.2/attn/fn/Gather_output_0, %onnx::Unsqueeze_676)
  %/transformer/encoder/layers.2/attn/fn/Constant_14_output_0 = Constant[value = <Tensor>]()
  %/transformer/encoder/layers.2/attn/fn/Constant_15_output_0 = Constant[value = <Tensor>]()
  %/transformer/encoder/layers.2/attn/fn/Constant_16_output_0 = Constant[value = <Tensor>]()
  %/transformer/encoder/layers.2/attn/fn/Concat_2_output_0 = Concat[axis = 0](%/transformer/encoder/layers.2/attn/fn/Unsqueeze_2_output_0, %/transformer/encoder/layers.2/attn/fn/Constant_14_output_0, %/transformer/encoder/layers.2/attn/fn/Constant_15_output_0, %/transformer/encoder/layers.2/attn/fn/Constant_16_output_0)
  %/transformer/encoder/layers.2/attn/fn/Reshape_output_0 = Reshape[allowzero = 0](%/transformer/encoder/layers.2/attn/fn/Slice_output_0, %/transformer/encoder/layers.2/attn/fn/Concat_output_0)
  %/transformer/encoder/layers.2/attn/fn/Transpose_output_0 = Transpose[perm = [0, 2, 1, 3]](%/transformer/encoder/layers.2/attn/fn/Reshape_output_0)
  %/transformer/encoder/layers.2/attn/fn/Reshape_1_output_0 = Reshape[allowzero = 0](%/transformer/encoder/layers.2/attn/fn/Slice_1_output_0, %/transformer/encoder/layers.2/attn/fn/Concat_1_output_0)
  %/transformer/encoder/layers.2/attn/fn/Reshape_2_output_0 = Reshape[allowzero = 0](%/transformer/encoder/layers.2/attn/fn/Slice_2_output_0, %/transformer/encoder/layers.2/attn/fn/Concat_2_output_0)
  %/transformer/encoder/layers.2/attn/fn/Transpose_1_output_0 = Transpose[perm = [0, 2, 1, 3]](%/transformer/encoder/layers.2/attn/fn/Reshape_2_output_0)
  %/transformer/encoder/layers.2/attn/fn/Shape_2_output_0 = Shape(%/transformer/encoder/layers.2/attn/fn/Transpose_output_0)
  %/transformer/encoder/layers.2/attn/fn/Constant_17_output_0 = Constant[value = <Tensor>]()
  %/transformer/encoder/layers.2/attn/fn/Constant_18_output_0 = Constant[value = <Tensor>]()
  %/transformer/encoder/layers.2/attn/fn/Slice_3_output_0 = Slice(%/transformer/encoder/layers.2/attn/fn/Shape_2_output_0, %/transformer/encoder/layers.2/attn/fn/Constant_17_output_0, %/transformer/encoder/layers.2/attn/fn/Constant_18_output_0)
  %/transformer/encoder/layers.2/attn/fn/Cast_output_0 = Cast[to = 1](%/transformer/encoder/layers.2/attn/fn/Slice_3_output_0)
  %/transformer/encoder/layers.2/attn/fn/Sqrt_output_0 = Sqrt(%/transformer/encoder/layers.2/attn/fn/Cast_output_0)
  %/transformer/encoder/layers.2/attn/fn/Constant_19_output_0 = Constant[value = <Tensor>]()
  %/transformer/encoder/layers.2/attn/fn/Div_1_output_0 = Div(%/transformer/encoder/layers.2/attn/fn/Constant_19_output_0, %/transformer/encoder/layers.2/attn/fn/Sqrt_output_0)
  %/transformer/encoder/layers.2/attn/fn/Cast_1_output_0 = Cast[to = 1](%/transformer/encoder/layers.2/attn/fn/Div_1_output_0)
  %/transformer/encoder/layers.2/attn/fn/Transpose_2_output_0 = Transpose[perm = [0, 2, 3, 1]](%/transformer/encoder/layers.2/attn/fn/Reshape_1_output_0)
  %/transformer/encoder/layers.2/attn/fn/Sqrt_1_output_0 = Sqrt(%/transformer/encoder/layers.2/attn/fn/Cast_1_output_0)
  %/transformer/encoder/layers.2/attn/fn/Mul_3_output_0 = Mul(%/transformer/encoder/layers.2/attn/fn/Transpose_output_0, %/transformer/encoder/layers.2/attn/fn/Sqrt_1_output_0)
  %/transformer/encoder/layers.2/attn/fn/Sqrt_2_output_0 = Sqrt(%/transformer/encoder/layers.2/attn/fn/Cast_1_output_0)
  %/transformer/encoder/layers.2/attn/fn/Mul_4_output_0 = Mul(%/transformer/encoder/layers.2/attn/fn/Transpose_2_output_0, %/transformer/encoder/layers.2/attn/fn/Sqrt_2_output_0)
  %/transformer/encoder/layers.2/attn/fn/MatMul_1_output_0 = MatMul(%/transformer/encoder/layers.2/attn/fn/Mul_3_output_0, %/transformer/encoder/layers.2/attn/fn/Mul_4_output_0)
  %/transformer/encoder/layers.2/attn/fn/Softmax_output_0 = Softmax[axis = -1](%/transformer/encoder/layers.2/attn/fn/MatMul_1_output_0)
  %/transformer/encoder/layers.2/attn/fn/MatMul_2_output_0 = MatMul(%/transformer/encoder/layers.2/attn/fn/Softmax_output_0, %/transformer/encoder/layers.2/attn/fn/Transpose_1_output_0)
  %/transformer/encoder/layers.2/attn/fn/Transpose_3_output_0 = Transpose[perm = [0, 2, 1, 3]](%/transformer/encoder/layers.2/attn/fn/MatMul_2_output_0)
  %onnx::Unsqueeze_708 = Constant[value = <Tensor>]()
  %/transformer/encoder/layers.2/attn/fn/Unsqueeze_3_output_0 = Unsqueeze(%/transformer/encoder/layers.2/attn/fn/Gather_output_0, %onnx::Unsqueeze_708)
  %/transformer/encoder/layers.2/attn/fn/Constant_20_output_0 = Constant[value = <Tensor>]()
  %/transformer/encoder/layers.2/attn/fn/Constant_21_output_0 = Constant[value = <Tensor>]()
  %/transformer/encoder/layers.2/attn/fn/Concat_3_output_0 = Concat[axis = 0](%/transformer/encoder/layers.2/attn/fn/Unsqueeze_3_output_0, %/transformer/encoder/layers.2/attn/fn/Constant_20_output_0, %/transformer/encoder/layers.2/attn/fn/Constant_21_output_0)
  %/transformer/encoder/layers.2/attn/fn/Reshape_3_output_0 = Reshape[allowzero = 0](%/transformer/encoder/layers.2/attn/fn/Transpose_3_output_0, %/transformer/encoder/layers.2/attn/fn/Concat_3_output_0)
  %/transformer/encoder/layers.2/attn/fn/attn_out/MatMul_output_0 = MatMul(%/transformer/encoder/layers.2/attn/fn/Reshape_3_output_0, %onnx::MatMul_17317)
  %/transformer/encoder/layers.2/attn/fn/attn_out/Add_output_0 = Add(%transformer.encoder.layers.2.attn.fn.attn_out.bias, %/transformer/encoder/layers.2/attn/fn/attn_out/MatMul_output_0)
  %/transformer/encoder/layers.2/attn/ls/Mul_output_0 = Mul(%/transformer/encoder/layers.2/attn/fn/attn_out/Add_output_0, %transformer.encoder.layers.2.attn.ls.gamma)
  %/transformer/encoder/layers.2/attn/Add_output_0 = Add(%/transformer/encoder/layers.2/attn/ls/Mul_output_0, %/transformer/encoder/layers.1/ff/Add_output_0)
  %/transformer/encoder/layers.2/ff/norm/ReduceMean_output_0 = ReduceMean[axes = [-1]](%/transformer/encoder/layers.2/attn/Add_output_0)
  %/transformer/encoder/layers.2/ff/norm/Sub_output_0 = Sub(%/transformer/encoder/layers.2/attn/Add_output_0, %/transformer/encoder/layers.2/ff/norm/ReduceMean_output_0)
  %/transformer/encoder/layers.2/ff/norm/Constant_output_0 = Constant[value = <Scalar Tensor []>]()
  %/transformer/encoder/layers.2/ff/norm/Pow_output_0 = Pow(%/transformer/encoder/layers.2/ff/norm/Sub_output_0, %/transformer/encoder/layers.2/ff/norm/Constant_output_0)
  %/transformer/encoder/layers.2/ff/norm/ReduceMean_1_output_0 = ReduceMean[axes = [-1]](%/transformer/encoder/layers.2/ff/norm/Pow_output_0)
  %/transformer/encoder/layers.2/ff/norm/Constant_1_output_0 = Constant[value = <Scalar Tensor []>]()
  %/transformer/encoder/layers.2/ff/norm/Add_output_0 = Add(%/transformer/encoder/layers.2/ff/norm/ReduceMean_1_output_0, %/transformer/encoder/layers.2/ff/norm/Constant_1_output_0)
  %/transformer/encoder/layers.2/ff/norm/Sqrt_output_0 = Sqrt(%/transformer/encoder/layers.2/ff/norm/Add_output_0)
  %/transformer/encoder/layers.2/ff/norm/Div_output_0 = Div(%/transformer/encoder/layers.2/ff/norm/Sub_output_0, %/transformer/encoder/layers.2/ff/norm/Sqrt_output_0)
  %/transformer/encoder/layers.2/ff/norm/Mul_output_0 = Mul(%/transformer/encoder/layers.2/ff/norm/Div_output_0, %transformer.encoder.layers.2.ff.norm.weight)
  %/transformer/encoder/layers.2/ff/norm/Add_1_output_0 = Add(%/transformer/encoder/layers.2/ff/norm/Mul_output_0, %transformer.encoder.layers.2.ff.norm.bias)
  %/transformer/encoder/layers.2/ff/fn/lin1/MatMul_output_0 = MatMul(%/transformer/encoder/layers.2/ff/norm/Add_1_output_0, %onnx::MatMul_17318)
  %/transformer/encoder/layers.2/ff/fn/lin1/Add_output_0 = Add(%transformer.encoder.layers.2.ff.fn.lin1.bias, %/transformer/encoder/layers.2/ff/fn/lin1/MatMul_output_0)
  %/transformer/encoder/layers.2/ff/fn/Shape_output_0 = Shape(%/transformer/encoder/layers.2/ff/fn/lin1/Add_output_0)
  %/transformer/encoder/layers.2/ff/fn/Constant_output_0 = Constant[value = <Tensor>]()
  %/transformer/encoder/layers.2/ff/fn/Gather_output_0 = Gather[axis = 0](%/transformer/encoder/layers.2/ff/fn/Shape_output_0, %/transformer/encoder/layers.2/ff/fn/Constant_output_0)
  %/transformer/encoder/layers.2/ff/fn/Constant_1_output_0 = Constant[value = <Tensor>]()
  %/transformer/encoder/layers.2/ff/fn/Constant_2_output_0 = Constant[value = <Tensor>]()
  %/transformer/encoder/layers.2/ff/fn/Add_output_0 = Add(%/transformer/encoder/layers.2/ff/fn/Gather_output_0, %/transformer/encoder/layers.2/ff/fn/Constant_2_output_0)
  %/transformer/encoder/layers.2/ff/fn/Constant_3_output_0 = Constant[value = <Tensor>]()
  %/transformer/encoder/layers.2/ff/fn/Div_output_0 = Div(%/transformer/encoder/layers.2/ff/fn/Add_output_0, %/transformer/encoder/layers.2/ff/fn/Constant_3_output_0)
  %/transformer/encoder/layers.2/ff/fn/Constant_4_output_0 = Constant[value = <Tensor>]()
  %/transformer/encoder/layers.2/ff/fn/Mul_output_0 = Mul(%/transformer/encoder/layers.2/ff/fn/Div_output_0, %/transformer/encoder/layers.2/ff/fn/Constant_4_output_0)
  %/transformer/encoder/layers.2/ff/fn/Slice_output_0 = Slice(%/transformer/encoder/layers.2/ff/fn/lin1/Add_output_0, %/transformer/encoder/layers.2/ff/fn/Constant_1_output_0, %/transformer/encoder/layers.2/ff/fn/Mul_output_0, %/transformer/encoder/layers.2/ff/fn/Constant_output_0)
  %/transformer/encoder/layers.2/ff/fn/Constant_5_output_0 = Constant[value = <Tensor>]()
  %/transformer/encoder/layers.2/ff/fn/Mul_1_output_0 = Mul(%/transformer/encoder/layers.2/ff/fn/Div_output_0, %/transformer/encoder/layers.2/ff/fn/Constant_5_output_0)
  %/transformer/encoder/layers.2/ff/fn/Slice_1_output_0 = Slice(%/transformer/encoder/layers.2/ff/fn/lin1/Add_output_0, %/transformer/encoder/layers.2/ff/fn/Mul_output_0, %/transformer/encoder/layers.2/ff/fn/Mul_1_output_0, %/transformer/encoder/layers.2/ff/fn/Constant_output_0)
  %/transformer/encoder/layers.2/ff/fn/Sigmoid_output_0 = Sigmoid(%/transformer/encoder/layers.2/ff/fn/Slice_output_0)
  %/transformer/encoder/layers.2/ff/fn/Mul_2_output_0 = Mul(%/transformer/encoder/layers.2/ff/fn/Slice_output_0, %/transformer/encoder/layers.2/ff/fn/Sigmoid_output_0)
  %/transformer/encoder/layers.2/ff/fn/Mul_3_output_0 = Mul(%/transformer/encoder/layers.2/ff/fn/Mul_2_output_0, %/transformer/encoder/layers.2/ff/fn/Slice_1_output_0)
  %/transformer/encoder/layers.2/ff/fn/lin2/MatMul_output_0 = MatMul(%/transformer/encoder/layers.2/ff/fn/Mul_3_output_0, %onnx::MatMul_17319)
  %/transformer/encoder/layers.2/ff/fn/lin2/Add_output_0 = Add(%transformer.encoder.layers.2.ff.fn.lin2.bias, %/transformer/encoder/layers.2/ff/fn/lin2/MatMul_output_0)
  %/transformer/encoder/layers.2/ff/ls/Mul_output_0 = Mul(%/transformer/encoder/layers.2/ff/fn/lin2/Add_output_0, %transformer.encoder.layers.2.ff.ls.gamma)
  %/transformer/encoder/layers.2/ff/Add_output_0 = Add(%/transformer/encoder/layers.2/ff/ls/Mul_output_0, %/transformer/encoder/layers.2/attn/Add_output_0)
  %/transformer/encoder/layers.3/attn/norm/ReduceMean_output_0 = ReduceMean[axes = [-1]](%/transformer/encoder/layers.2/ff/Add_output_0)
  %/transformer/encoder/layers.3/attn/norm/Sub_output_0 = Sub(%/transformer/encoder/layers.2/ff/Add_output_0, %/transformer/encoder/layers.3/attn/norm/ReduceMean_output_0)
  %/transformer/encoder/layers.3/attn/norm/Constant_output_0 = Constant[value = <Scalar Tensor []>]()
  %/transformer/encoder/layers.3/attn/norm/Pow_output_0 = Pow(%/transformer/encoder/layers.3/attn/norm/Sub_output_0, %/transformer/encoder/layers.3/attn/norm/Constant_output_0)
  %/transformer/encoder/layers.3/attn/norm/ReduceMean_1_output_0 = ReduceMean[axes = [-1]](%/transformer/encoder/layers.3/attn/norm/Pow_output_0)
  %/transformer/encoder/layers.3/attn/norm/Constant_1_output_0 = Constant[value = <Scalar Tensor []>]()
  %/transformer/encoder/layers.3/attn/norm/Add_output_0 = Add(%/transformer/encoder/layers.3/attn/norm/ReduceMean_1_output_0, %/transformer/encoder/layers.3/attn/norm/Constant_1_output_0)
  %/transformer/encoder/layers.3/attn/norm/Sqrt_output_0 = Sqrt(%/transformer/encoder/layers.3/attn/norm/Add_output_0)
  %/transformer/encoder/layers.3/attn/norm/Div_output_0 = Div(%/transformer/encoder/layers.3/attn/norm/Sub_output_0, %/transformer/encoder/layers.3/attn/norm/Sqrt_output_0)
  %/transformer/encoder/layers.3/attn/norm/Mul_output_0 = Mul(%/transformer/encoder/layers.3/attn/norm/Div_output_0, %transformer.encoder.layers.3.attn.norm.weight)
  %/transformer/encoder/layers.3/attn/norm/Add_1_output_0 = Add(%/transformer/encoder/layers.3/attn/norm/Mul_output_0, %transformer.encoder.layers.3.attn.norm.bias)
  %/transformer/encoder/layers.3/attn/fn/Shape_output_0 = Shape(%/transformer/encoder/layers.3/attn/norm/Add_1_output_0)
  %/transformer/encoder/layers.3/attn/fn/Constant_output_0 = Constant[value = <Scalar Tensor []>]()
  %/transformer/encoder/layers.3/attn/fn/Gather_output_0 = Gather[axis = 0](%/transformer/encoder/layers.3/attn/fn/Shape_output_0, %/transformer/encoder/layers.3/attn/fn/Constant_output_0)
  %/transformer/encoder/layers.3/attn/fn/MatMul_output_0 = MatMul(%/transformer/encoder/layers.3/attn/norm/Add_1_output_0, %onnx::MatMul_17320)
  %/transformer/encoder/layers.3/attn/fn/Add_output_0 = Add(%transformer.encoder.layers.3.attn.fn.attn_in_b, %/transformer/encoder/layers.3/attn/fn/MatMul_output_0)
  %/transformer/encoder/layers.3/attn/fn/Shape_1_output_0 = Shape(%/transformer/encoder/layers.3/attn/fn/Add_output_0)
  %/transformer/encoder/layers.3/attn/fn/Constant_1_output_0 = Constant[value = <Tensor>]()
  %/transformer/encoder/layers.3/attn/fn/Gather_1_output_0 = Gather[axis = 0](%/transformer/encoder/layers.3/attn/fn/Shape_1_output_0, %/transformer/encoder/layers.3/attn/fn/Constant_1_output_0)
  %/transformer/encoder/layers.3/attn/fn/Constant_2_output_0 = Constant[value = <Tensor>]()
  %/transformer/encoder/layers.3/attn/fn/Constant_3_output_0 = Constant[value = <Tensor>]()
  %/transformer/encoder/layers.3/attn/fn/Add_1_output_0 = Add(%/transformer/encoder/layers.3/attn/fn/Gather_1_output_0, %/transformer/encoder/layers.3/attn/fn/Constant_3_output_0)
  %/transformer/encoder/layers.3/attn/fn/Constant_4_output_0 = Constant[value = <Tensor>]()
  %/transformer/encoder/layers.3/attn/fn/Div_output_0 = Div(%/transformer/encoder/layers.3/attn/fn/Add_1_output_0, %/transformer/encoder/layers.3/attn/fn/Constant_4_output_0)
  %/transformer/encoder/layers.3/attn/fn/Constant_5_output_0 = Constant[value = <Tensor>]()
  %/transformer/encoder/layers.3/attn/fn/Mul_output_0 = Mul(%/transformer/encoder/layers.3/attn/fn/Div_output_0, %/transformer/encoder/layers.3/attn/fn/Constant_5_output_0)
  %/transformer/encoder/layers.3/attn/fn/Slice_output_0 = Slice(%/transformer/encoder/layers.3/attn/fn/Add_output_0, %/transformer/encoder/layers.3/attn/fn/Constant_2_output_0, %/transformer/encoder/layers.3/attn/fn/Mul_output_0, %/transformer/encoder/layers.3/attn/fn/Constant_1_output_0)
  %/transformer/encoder/layers.3/attn/fn/Constant_6_output_0 = Constant[value = <Tensor>]()
  %/transformer/encoder/layers.3/attn/fn/Mul_1_output_0 = Mul(%/transformer/encoder/layers.3/attn/fn/Div_output_0, %/transformer/encoder/layers.3/attn/fn/Constant_6_output_0)
  %/transformer/encoder/layers.3/attn/fn/Slice_1_output_0 = Slice(%/transformer/encoder/layers.3/attn/fn/Add_output_0, %/transformer/encoder/layers.3/attn/fn/Mul_output_0, %/transformer/encoder/layers.3/attn/fn/Mul_1_output_0, %/transformer/encoder/layers.3/attn/fn/Constant_1_output_0)
  %/transformer/encoder/layers.3/attn/fn/Constant_7_output_0 = Constant[value = <Tensor>]()
  %/transformer/encoder/layers.3/attn/fn/Mul_2_output_0 = Mul(%/transformer/encoder/layers.3/attn/fn/Div_output_0, %/transformer/encoder/layers.3/attn/fn/Constant_7_output_0)
  %/transformer/encoder/layers.3/attn/fn/Slice_2_output_0 = Slice(%/transformer/encoder/layers.3/attn/fn/Add_output_0, %/transformer/encoder/layers.3/attn/fn/Mul_1_output_0, %/transformer/encoder/layers.3/attn/fn/Mul_2_output_0, %/transformer/encoder/layers.3/attn/fn/Constant_1_output_0)
  %onnx::Unsqueeze_791 = Constant[value = <Tensor>]()
  %/transformer/encoder/layers.3/attn/fn/Unsqueeze_output_0 = Unsqueeze(%/transformer/encoder/layers.3/attn/fn/Gather_output_0, %onnx::Unsqueeze_791)
  %/transformer/encoder/layers.3/attn/fn/Constant_8_output_0 = Constant[value = <Tensor>]()
  %/transformer/encoder/layers.3/attn/fn/Constant_9_output_0 = Constant[value = <Tensor>]()
  %/transformer/encoder/layers.3/attn/fn/Constant_10_output_0 = Constant[value = <Tensor>]()
  %/transformer/encoder/layers.3/attn/fn/Concat_output_0 = Concat[axis = 0](%/transformer/encoder/layers.3/attn/fn/Unsqueeze_output_0, %/transformer/encoder/layers.3/attn/fn/Constant_8_output_0, %/transformer/encoder/layers.3/attn/fn/Constant_9_output_0, %/transformer/encoder/layers.3/attn/fn/Constant_10_output_0)
  %onnx::Unsqueeze_800 = Constant[value = <Tensor>]()
  %/transformer/encoder/layers.3/attn/fn/Unsqueeze_1_output_0 = Unsqueeze(%/transformer/encoder/layers.3/attn/fn/Gather_output_0, %onnx::Unsqueeze_800)
  %/transformer/encoder/layers.3/attn/fn/Constant_11_output_0 = Constant[value = <Tensor>]()
  %/transformer/encoder/layers.3/attn/fn/Constant_12_output_0 = Constant[value = <Tensor>]()
  %/transformer/encoder/layers.3/attn/fn/Constant_13_output_0 = Constant[value = <Tensor>]()
  %/transformer/encoder/layers.3/attn/fn/Concat_1_output_0 = Concat[axis = 0](%/transformer/encoder/layers.3/attn/fn/Unsqueeze_1_output_0, %/transformer/encoder/layers.3/attn/fn/Constant_11_output_0, %/transformer/encoder/layers.3/attn/fn/Constant_12_output_0, %/transformer/encoder/layers.3/attn/fn/Constant_13_output_0)
  %onnx::Unsqueeze_809 = Constant[value = <Tensor>]()
  %/transformer/encoder/layers.3/attn/fn/Unsqueeze_2_output_0 = Unsqueeze(%/transformer/encoder/layers.3/attn/fn/Gather_output_0, %onnx::Unsqueeze_809)
  %/transformer/encoder/layers.3/attn/fn/Constant_14_output_0 = Constant[value = <Tensor>]()
  %/transformer/encoder/layers.3/attn/fn/Constant_15_output_0 = Constant[value = <Tensor>]()
  %/transformer/encoder/layers.3/attn/fn/Constant_16_output_0 = Constant[value = <Tensor>]()
  %/transformer/encoder/layers.3/attn/fn/Concat_2_output_0 = Concat[axis = 0](%/transformer/encoder/layers.3/attn/fn/Unsqueeze_2_output_0, %/transformer/encoder/layers.3/attn/fn/Constant_14_output_0, %/transformer/encoder/layers.3/attn/fn/Constant_15_output_0, %/transformer/encoder/layers.3/attn/fn/Constant_16_output_0)
  %/transformer/encoder/layers.3/attn/fn/Reshape_output_0 = Reshape[allowzero = 0](%/transformer/encoder/layers.3/attn/fn/Slice_output_0, %/transformer/encoder/layers.3/attn/fn/Concat_output_0)
  %/transformer/encoder/layers.3/attn/fn/Transpose_output_0 = Transpose[perm = [0, 2, 1, 3]](%/transformer/encoder/layers.3/attn/fn/Reshape_output_0)
  %/transformer/encoder/layers.3/attn/fn/Reshape_1_output_0 = Reshape[allowzero = 0](%/transformer/encoder/layers.3/attn/fn/Slice_1_output_0, %/transformer/encoder/layers.3/attn/fn/Concat_1_output_0)
  %/transformer/encoder/layers.3/attn/fn/Reshape_2_output_0 = Reshape[allowzero = 0](%/transformer/encoder/layers.3/attn/fn/Slice_2_output_0, %/transformer/encoder/layers.3/attn/fn/Concat_2_output_0)
  %/transformer/encoder/layers.3/attn/fn/Transpose_1_output_0 = Transpose[perm = [0, 2, 1, 3]](%/transformer/encoder/layers.3/attn/fn/Reshape_2_output_0)
  %/transformer/encoder/layers.3/attn/fn/Shape_2_output_0 = Shape(%/transformer/encoder/layers.3/attn/fn/Transpose_output_0)
  %/transformer/encoder/layers.3/attn/fn/Constant_17_output_0 = Constant[value = <Tensor>]()
  %/transformer/encoder/layers.3/attn/fn/Constant_18_output_0 = Constant[value = <Tensor>]()
  %/transformer/encoder/layers.3/attn/fn/Slice_3_output_0 = Slice(%/transformer/encoder/layers.3/attn/fn/Shape_2_output_0, %/transformer/encoder/layers.3/attn/fn/Constant_17_output_0, %/transformer/encoder/layers.3/attn/fn/Constant_18_output_0)
  %/transformer/encoder/layers.3/attn/fn/Cast_output_0 = Cast[to = 1](%/transformer/encoder/layers.3/attn/fn/Slice_3_output_0)
  %/transformer/encoder/layers.3/attn/fn/Sqrt_output_0 = Sqrt(%/transformer/encoder/layers.3/attn/fn/Cast_output_0)
  %/transformer/encoder/layers.3/attn/fn/Constant_19_output_0 = Constant[value = <Tensor>]()
  %/transformer/encoder/layers.3/attn/fn/Div_1_output_0 = Div(%/transformer/encoder/layers.3/attn/fn/Constant_19_output_0, %/transformer/encoder/layers.3/attn/fn/Sqrt_output_0)
  %/transformer/encoder/layers.3/attn/fn/Cast_1_output_0 = Cast[to = 1](%/transformer/encoder/layers.3/attn/fn/Div_1_output_0)
  %/transformer/encoder/layers.3/attn/fn/Transpose_2_output_0 = Transpose[perm = [0, 2, 3, 1]](%/transformer/encoder/layers.3/attn/fn/Reshape_1_output_0)
  %/transformer/encoder/layers.3/attn/fn/Sqrt_1_output_0 = Sqrt(%/transformer/encoder/layers.3/attn/fn/Cast_1_output_0)
  %/transformer/encoder/layers.3/attn/fn/Mul_3_output_0 = Mul(%/transformer/encoder/layers.3/attn/fn/Transpose_output_0, %/transformer/encoder/layers.3/attn/fn/Sqrt_1_output_0)
  %/transformer/encoder/layers.3/attn/fn/Sqrt_2_output_0 = Sqrt(%/transformer/encoder/layers.3/attn/fn/Cast_1_output_0)
  %/transformer/encoder/layers.3/attn/fn/Mul_4_output_0 = Mul(%/transformer/encoder/layers.3/attn/fn/Transpose_2_output_0, %/transformer/encoder/layers.3/attn/fn/Sqrt_2_output_0)
  %/transformer/encoder/layers.3/attn/fn/MatMul_1_output_0 = MatMul(%/transformer/encoder/layers.3/attn/fn/Mul_3_output_0, %/transformer/encoder/layers.3/attn/fn/Mul_4_output_0)
  %/transformer/encoder/layers.3/attn/fn/Softmax_output_0 = Softmax[axis = -1](%/transformer/encoder/layers.3/attn/fn/MatMul_1_output_0)
  %/transformer/encoder/layers.3/attn/fn/MatMul_2_output_0 = MatMul(%/transformer/encoder/layers.3/attn/fn/Softmax_output_0, %/transformer/encoder/layers.3/attn/fn/Transpose_1_output_0)
  %/transformer/encoder/layers.3/attn/fn/Transpose_3_output_0 = Transpose[perm = [0, 2, 1, 3]](%/transformer/encoder/layers.3/attn/fn/MatMul_2_output_0)
  %onnx::Unsqueeze_841 = Constant[value = <Tensor>]()
  %/transformer/encoder/layers.3/attn/fn/Unsqueeze_3_output_0 = Unsqueeze(%/transformer/encoder/layers.3/attn/fn/Gather_output_0, %onnx::Unsqueeze_841)
  %/transformer/encoder/layers.3/attn/fn/Constant_20_output_0 = Constant[value = <Tensor>]()
  %/transformer/encoder/layers.3/attn/fn/Constant_21_output_0 = Constant[value = <Tensor>]()
  %/transformer/encoder/layers.3/attn/fn/Concat_3_output_0 = Concat[axis = 0](%/transformer/encoder/layers.3/attn/fn/Unsqueeze_3_output_0, %/transformer/encoder/layers.3/attn/fn/Constant_20_output_0, %/transformer/encoder/layers.3/attn/fn/Constant_21_output_0)
  %/transformer/encoder/layers.3/attn/fn/Reshape_3_output_0 = Reshape[allowzero = 0](%/transformer/encoder/layers.3/attn/fn/Transpose_3_output_0, %/transformer/encoder/layers.3/attn/fn/Concat_3_output_0)
  %/transformer/encoder/layers.3/attn/fn/attn_out/MatMul_output_0 = MatMul(%/transformer/encoder/layers.3/attn/fn/Reshape_3_output_0, %onnx::MatMul_17332)
  %/transformer/encoder/layers.3/attn/fn/attn_out/Add_output_0 = Add(%transformer.encoder.layers.3.attn.fn.attn_out.bias, %/transformer/encoder/layers.3/attn/fn/attn_out/MatMul_output_0)
  %/transformer/encoder/layers.3/attn/ls/Mul_output_0 = Mul(%/transformer/encoder/layers.3/attn/fn/attn_out/Add_output_0, %transformer.encoder.layers.3.attn.ls.gamma)
  %/transformer/encoder/layers.3/attn/Add_output_0 = Add(%/transformer/encoder/layers.3/attn/ls/Mul_output_0, %/transformer/encoder/layers.2/ff/Add_output_0)
  %/transformer/encoder/layers.3/ff/norm/ReduceMean_output_0 = ReduceMean[axes = [-1]](%/transformer/encoder/layers.3/attn/Add_output_0)
  %/transformer/encoder/layers.3/ff/norm/Sub_output_0 = Sub(%/transformer/encoder/layers.3/attn/Add_output_0, %/transformer/encoder/layers.3/ff/norm/ReduceMean_output_0)
  %/transformer/encoder/layers.3/ff/norm/Constant_output_0 = Constant[value = <Scalar Tensor []>]()
  %/transformer/encoder/layers.3/ff/norm/Pow_output_0 = Pow(%/transformer/encoder/layers.3/ff/norm/Sub_output_0, %/transformer/encoder/layers.3/ff/norm/Constant_output_0)
  %/transformer/encoder/layers.3/ff/norm/ReduceMean_1_output_0 = ReduceMean[axes = [-1]](%/transformer/encoder/layers.3/ff/norm/Pow_output_0)
  %/transformer/encoder/layers.3/ff/norm/Constant_1_output_0 = Constant[value = <Scalar Tensor []>]()
  %/transformer/encoder/layers.3/ff/norm/Add_output_0 = Add(%/transformer/encoder/layers.3/ff/norm/ReduceMean_1_output_0, %/transformer/encoder/layers.3/ff/norm/Constant_1_output_0)
  %/transformer/encoder/layers.3/ff/norm/Sqrt_output_0 = Sqrt(%/transformer/encoder/layers.3/ff/norm/Add_output_0)
  %/transformer/encoder/layers.3/ff/norm/Div_output_0 = Div(%/transformer/encoder/layers.3/ff/norm/Sub_output_0, %/transformer/encoder/layers.3/ff/norm/Sqrt_output_0)
  %/transformer/encoder/layers.3/ff/norm/Mul_output_0 = Mul(%/transformer/encoder/layers.3/ff/norm/Div_output_0, %transformer.encoder.layers.3.ff.norm.weight)
  %/transformer/encoder/layers.3/ff/norm/Add_1_output_0 = Add(%/transformer/encoder/layers.3/ff/norm/Mul_output_0, %transformer.encoder.layers.3.ff.norm.bias)
  %/transformer/encoder/layers.3/ff/fn/lin1/MatMul_output_0 = MatMul(%/transformer/encoder/layers.3/ff/norm/Add_1_output_0, %onnx::MatMul_17333)
  %/transformer/encoder/layers.3/ff/fn/lin1/Add_output_0 = Add(%transformer.encoder.layers.3.ff.fn.lin1.bias, %/transformer/encoder/layers.3/ff/fn/lin1/MatMul_output_0)
  %/transformer/encoder/layers.3/ff/fn/Shape_output_0 = Shape(%/transformer/encoder/layers.3/ff/fn/lin1/Add_output_0)
  %/transformer/encoder/layers.3/ff/fn/Constant_output_0 = Constant[value = <Tensor>]()
  %/transformer/encoder/layers.3/ff/fn/Gather_output_0 = Gather[axis = 0](%/transformer/encoder/layers.3/ff/fn/Shape_output_0, %/transformer/encoder/layers.3/ff/fn/Constant_output_0)
  %/transformer/encoder/layers.3/ff/fn/Constant_1_output_0 = Constant[value = <Tensor>]()
  %/transformer/encoder/layers.3/ff/fn/Constant_2_output_0 = Constant[value = <Tensor>]()
  %/transformer/encoder/layers.3/ff/fn/Add_output_0 = Add(%/transformer/encoder/layers.3/ff/fn/Gather_output_0, %/transformer/encoder/layers.3/ff/fn/Constant_2_output_0)
  %/transformer/encoder/layers.3/ff/fn/Constant_3_output_0 = Constant[value = <Tensor>]()
  %/transformer/encoder/layers.3/ff/fn/Div_output_0 = Div(%/transformer/encoder/layers.3/ff/fn/Add_output_0, %/transformer/encoder/layers.3/ff/fn/Constant_3_output_0)
  %/transformer/encoder/layers.3/ff/fn/Constant_4_output_0 = Constant[value = <Tensor>]()
  %/transformer/encoder/layers.3/ff/fn/Mul_output_0 = Mul(%/transformer/encoder/layers.3/ff/fn/Div_output_0, %/transformer/encoder/layers.3/ff/fn/Constant_4_output_0)
  %/transformer/encoder/layers.3/ff/fn/Slice_output_0 = Slice(%/transformer/encoder/layers.3/ff/fn/lin1/Add_output_0, %/transformer/encoder/layers.3/ff/fn/Constant_1_output_0, %/transformer/encoder/layers.3/ff/fn/Mul_output_0, %/transformer/encoder/layers.3/ff/fn/Constant_output_0)
  %/transformer/encoder/layers.3/ff/fn/Constant_5_output_0 = Constant[value = <Tensor>]()
  %/transformer/encoder/layers.3/ff/fn/Mul_1_output_0 = Mul(%/transformer/encoder/layers.3/ff/fn/Div_output_0, %/transformer/encoder/layers.3/ff/fn/Constant_5_output_0)
  %/transformer/encoder/layers.3/ff/fn/Slice_1_output_0 = Slice(%/transformer/encoder/layers.3/ff/fn/lin1/Add_output_0, %/transformer/encoder/layers.3/ff/fn/Mul_output_0, %/transformer/encoder/layers.3/ff/fn/Mul_1_output_0, %/transformer/encoder/layers.3/ff/fn/Constant_output_0)
  %/transformer/encoder/layers.3/ff/fn/Sigmoid_output_0 = Sigmoid(%/transformer/encoder/layers.3/ff/fn/Slice_output_0)
  %/transformer/encoder/layers.3/ff/fn/Mul_2_output_0 = Mul(%/transformer/encoder/layers.3/ff/fn/Slice_output_0, %/transformer/encoder/layers.3/ff/fn/Sigmoid_output_0)
  %/transformer/encoder/layers.3/ff/fn/Mul_3_output_0 = Mul(%/transformer/encoder/layers.3/ff/fn/Mul_2_output_0, %/transformer/encoder/layers.3/ff/fn/Slice_1_output_0)
  %/transformer/encoder/layers.3/ff/fn/lin2/MatMul_output_0 = MatMul(%/transformer/encoder/layers.3/ff/fn/Mul_3_output_0, %onnx::MatMul_17334)
  %/transformer/encoder/layers.3/ff/fn/lin2/Add_output_0 = Add(%transformer.encoder.layers.3.ff.fn.lin2.bias, %/transformer/encoder/layers.3/ff/fn/lin2/MatMul_output_0)
  %/transformer/encoder/layers.3/ff/ls/Mul_output_0 = Mul(%/transformer/encoder/layers.3/ff/fn/lin2/Add_output_0, %transformer.encoder.layers.3.ff.ls.gamma)
  %/transformer/encoder/layers.3/ff/Add_output_0 = Add(%/transformer/encoder/layers.3/ff/ls/Mul_output_0, %/transformer/encoder/layers.3/attn/Add_output_0)
  %/transformer/encoder/layers.4/attn/norm/ReduceMean_output_0 = ReduceMean[axes = [-1]](%/transformer/encoder/layers.3/ff/Add_output_0)
  %/transformer/encoder/layers.4/attn/norm/Sub_output_0 = Sub(%/transformer/encoder/layers.3/ff/Add_output_0, %/transformer/encoder/layers.4/attn/norm/ReduceMean_output_0)
  %/transformer/encoder/layers.4/attn/norm/Constant_output_0 = Constant[value = <Scalar Tensor []>]()
  %/transformer/encoder/layers.4/attn/norm/Pow_output_0 = Pow(%/transformer/encoder/layers.4/attn/norm/Sub_output_0, %/transformer/encoder/layers.4/attn/norm/Constant_output_0)
  %/transformer/encoder/layers.4/attn/norm/ReduceMean_1_output_0 = ReduceMean[axes = [-1]](%/transformer/encoder/layers.4/attn/norm/Pow_output_0)
  %/transformer/encoder/layers.4/attn/norm/Constant_1_output_0 = Constant[value = <Scalar Tensor []>]()
  %/transformer/encoder/layers.4/attn/norm/Add_output_0 = Add(%/transformer/encoder/layers.4/attn/norm/ReduceMean_1_output_0, %/transformer/encoder/layers.4/attn/norm/Constant_1_output_0)
  %/transformer/encoder/layers.4/attn/norm/Sqrt_output_0 = Sqrt(%/transformer/encoder/layers.4/attn/norm/Add_output_0)
  %/transformer/encoder/layers.4/attn/norm/Div_output_0 = Div(%/transformer/encoder/layers.4/attn/norm/Sub_output_0, %/transformer/encoder/layers.4/attn/norm/Sqrt_output_0)
  %/transformer/encoder/layers.4/attn/norm/Mul_output_0 = Mul(%/transformer/encoder/layers.4/attn/norm/Div_output_0, %transformer.encoder.layers.4.attn.norm.weight)
  %/transformer/encoder/layers.4/attn/norm/Add_1_output_0 = Add(%/transformer/encoder/layers.4/attn/norm/Mul_output_0, %transformer.encoder.layers.4.attn.norm.bias)
  %/transformer/encoder/layers.4/attn/fn/Shape_output_0 = Shape(%/transformer/encoder/layers.4/attn/norm/Add_1_output_0)
  %/transformer/encoder/layers.4/attn/fn/Constant_output_0 = Constant[value = <Scalar Tensor []>]()
  %/transformer/encoder/layers.4/attn/fn/Gather_output_0 = Gather[axis = 0](%/transformer/encoder/layers.4/attn/fn/Shape_output_0, %/transformer/encoder/layers.4/attn/fn/Constant_output_0)
  %/transformer/encoder/layers.4/attn/fn/MatMul_output_0 = MatMul(%/transformer/encoder/layers.4/attn/norm/Add_1_output_0, %onnx::MatMul_17335)
  %/transformer/encoder/layers.4/attn/fn/Add_output_0 = Add(%transformer.encoder.layers.4.attn.fn.attn_in_b, %/transformer/encoder/layers.4/attn/fn/MatMul_output_0)
  %/transformer/encoder/layers.4/attn/fn/Shape_1_output_0 = Shape(%/transformer/encoder/layers.4/attn/fn/Add_output_0)
  %/transformer/encoder/layers.4/attn/fn/Constant_1_output_0 = Constant[value = <Tensor>]()
  %/transformer/encoder/layers.4/attn/fn/Gather_1_output_0 = Gather[axis = 0](%/transformer/encoder/layers.4/attn/fn/Shape_1_output_0, %/transformer/encoder/layers.4/attn/fn/Constant_1_output_0)
  %/transformer/encoder/layers.4/attn/fn/Constant_2_output_0 = Constant[value = <Tensor>]()
  %/transformer/encoder/layers.4/attn/fn/Constant_3_output_0 = Constant[value = <Tensor>]()
  %/transformer/encoder/layers.4/attn/fn/Add_1_output_0 = Add(%/transformer/encoder/layers.4/attn/fn/Gather_1_output_0, %/transformer/encoder/layers.4/attn/fn/Constant_3_output_0)
  %/transformer/encoder/layers.4/attn/fn/Constant_4_output_0 = Constant[value = <Tensor>]()
  %/transformer/encoder/layers.4/attn/fn/Div_output_0 = Div(%/transformer/encoder/layers.4/attn/fn/Add_1_output_0, %/transformer/encoder/layers.4/attn/fn/Constant_4_output_0)
  %/transformer/encoder/layers.4/attn/fn/Constant_5_output_0 = Constant[value = <Tensor>]()
  %/transformer/encoder/layers.4/attn/fn/Mul_output_0 = Mul(%/transformer/encoder/layers.4/attn/fn/Div_output_0, %/transformer/encoder/layers.4/attn/fn/Constant_5_output_0)
  %/transformer/encoder/layers.4/attn/fn/Slice_output_0 = Slice(%/transformer/encoder/layers.4/attn/fn/Add_output_0, %/transformer/encoder/layers.4/attn/fn/Constant_2_output_0, %/transformer/encoder/layers.4/attn/fn/Mul_output_0, %/transformer/encoder/layers.4/attn/fn/Constant_1_output_0)
  %/transformer/encoder/layers.4/attn/fn/Constant_6_output_0 = Constant[value = <Tensor>]()
  %/transformer/encoder/layers.4/attn/fn/Mul_1_output_0 = Mul(%/transformer/encoder/layers.4/attn/fn/Div_output_0, %/transformer/encoder/layers.4/attn/fn/Constant_6_output_0)
  %/transformer/encoder/layers.4/attn/fn/Slice_1_output_0 = Slice(%/transformer/encoder/layers.4/attn/fn/Add_output_0, %/transformer/encoder/layers.4/attn/fn/Mul_output_0, %/transformer/encoder/layers.4/attn/fn/Mul_1_output_0, %/transformer/encoder/layers.4/attn/fn/Constant_1_output_0)
  %/transformer/encoder/layers.4/attn/fn/Constant_7_output_0 = Constant[value = <Tensor>]()
  %/transformer/encoder/layers.4/attn/fn/Mul_2_output_0 = Mul(%/transformer/encoder/layers.4/attn/fn/Div_output_0, %/transformer/encoder/layers.4/attn/fn/Constant_7_output_0)
  %/transformer/encoder/layers.4/attn/fn/Slice_2_output_0 = Slice(%/transformer/encoder/layers.4/attn/fn/Add_output_0, %/transformer/encoder/layers.4/attn/fn/Mul_1_output_0, %/transformer/encoder/layers.4/attn/fn/Mul_2_output_0, %/transformer/encoder/layers.4/attn/fn/Constant_1_output_0)
  %onnx::Unsqueeze_924 = Constant[value = <Tensor>]()
  %/transformer/encoder/layers.4/attn/fn/Unsqueeze_output_0 = Unsqueeze(%/transformer/encoder/layers.4/attn/fn/Gather_output_0, %onnx::Unsqueeze_924)
  %/transformer/encoder/layers.4/attn/fn/Constant_8_output_0 = Constant[value = <Tensor>]()
  %/transformer/encoder/layers.4/attn/fn/Constant_9_output_0 = Constant[value = <Tensor>]()
  %/transformer/encoder/layers.4/attn/fn/Constant_10_output_0 = Constant[value = <Tensor>]()
  %/transformer/encoder/layers.4/attn/fn/Concat_output_0 = Concat[axis = 0](%/transformer/encoder/layers.4/attn/fn/Unsqueeze_output_0, %/transformer/encoder/layers.4/attn/fn/Constant_8_output_0, %/transformer/encoder/layers.4/attn/fn/Constant_9_output_0, %/transformer/encoder/layers.4/attn/fn/Constant_10_output_0)
  %onnx::Unsqueeze_933 = Constant[value = <Tensor>]()
  %/transformer/encoder/layers.4/attn/fn/Unsqueeze_1_output_0 = Unsqueeze(%/transformer/encoder/layers.4/attn/fn/Gather_output_0, %onnx::Unsqueeze_933)
  %/transformer/encoder/layers.4/attn/fn/Constant_11_output_0 = Constant[value = <Tensor>]()
  %/transformer/encoder/layers.4/attn/fn/Constant_12_output_0 = Constant[value = <Tensor>]()
  %/transformer/encoder/layers.4/attn/fn/Constant_13_output_0 = Constant[value = <Tensor>]()
  %/transformer/encoder/layers.4/attn/fn/Concat_1_output_0 = Concat[axis = 0](%/transformer/encoder/layers.4/attn/fn/Unsqueeze_1_output_0, %/transformer/encoder/layers.4/attn/fn/Constant_11_output_0, %/transformer/encoder/layers.4/attn/fn/Constant_12_output_0, %/transformer/encoder/layers.4/attn/fn/Constant_13_output_0)
  %onnx::Unsqueeze_942 = Constant[value = <Tensor>]()
  %/transformer/encoder/layers.4/attn/fn/Unsqueeze_2_output_0 = Unsqueeze(%/transformer/encoder/layers.4/attn/fn/Gather_output_0, %onnx::Unsqueeze_942)
  %/transformer/encoder/layers.4/attn/fn/Constant_14_output_0 = Constant[value = <Tensor>]()
  %/transformer/encoder/layers.4/attn/fn/Constant_15_output_0 = Constant[value = <Tensor>]()
  %/transformer/encoder/layers.4/attn/fn/Constant_16_output_0 = Constant[value = <Tensor>]()
  %/transformer/encoder/layers.4/attn/fn/Concat_2_output_0 = Concat[axis = 0](%/transformer/encoder/layers.4/attn/fn/Unsqueeze_2_output_0, %/transformer/encoder/layers.4/attn/fn/Constant_14_output_0, %/transformer/encoder/layers.4/attn/fn/Constant_15_output_0, %/transformer/encoder/layers.4/attn/fn/Constant_16_output_0)
  %/transformer/encoder/layers.4/attn/fn/Reshape_output_0 = Reshape[allowzero = 0](%/transformer/encoder/layers.4/attn/fn/Slice_output_0, %/transformer/encoder/layers.4/attn/fn/Concat_output_0)
  %/transformer/encoder/layers.4/attn/fn/Transpose_output_0 = Transpose[perm = [0, 2, 1, 3]](%/transformer/encoder/layers.4/attn/fn/Reshape_output_0)
  %/transformer/encoder/layers.4/attn/fn/Reshape_1_output_0 = Reshape[allowzero = 0](%/transformer/encoder/layers.4/attn/fn/Slice_1_output_0, %/transformer/encoder/layers.4/attn/fn/Concat_1_output_0)
  %/transformer/encoder/layers.4/attn/fn/Reshape_2_output_0 = Reshape[allowzero = 0](%/transformer/encoder/layers.4/attn/fn/Slice_2_output_0, %/transformer/encoder/layers.4/attn/fn/Concat_2_output_0)
  %/transformer/encoder/layers.4/attn/fn/Transpose_1_output_0 = Transpose[perm = [0, 2, 1, 3]](%/transformer/encoder/layers.4/attn/fn/Reshape_2_output_0)
  %/transformer/encoder/layers.4/attn/fn/Shape_2_output_0 = Shape(%/transformer/encoder/layers.4/attn/fn/Transpose_output_0)
  %/transformer/encoder/layers.4/attn/fn/Constant_17_output_0 = Constant[value = <Tensor>]()
  %/transformer/encoder/layers.4/attn/fn/Constant_18_output_0 = Constant[value = <Tensor>]()
  %/transformer/encoder/layers.4/attn/fn/Slice_3_output_0 = Slice(%/transformer/encoder/layers.4/attn/fn/Shape_2_output_0, %/transformer/encoder/layers.4/attn/fn/Constant_17_output_0, %/transformer/encoder/layers.4/attn/fn/Constant_18_output_0)
  %/transformer/encoder/layers.4/attn/fn/Cast_output_0 = Cast[to = 1](%/transformer/encoder/layers.4/attn/fn/Slice_3_output_0)
  %/transformer/encoder/layers.4/attn/fn/Sqrt_output_0 = Sqrt(%/transformer/encoder/layers.4/attn/fn/Cast_output_0)
  %/transformer/encoder/layers.4/attn/fn/Constant_19_output_0 = Constant[value = <Tensor>]()
  %/transformer/encoder/layers.4/attn/fn/Div_1_output_0 = Div(%/transformer/encoder/layers.4/attn/fn/Constant_19_output_0, %/transformer/encoder/layers.4/attn/fn/Sqrt_output_0)
  %/transformer/encoder/layers.4/attn/fn/Cast_1_output_0 = Cast[to = 1](%/transformer/encoder/layers.4/attn/fn/Div_1_output_0)
  %/transformer/encoder/layers.4/attn/fn/Transpose_2_output_0 = Transpose[perm = [0, 2, 3, 1]](%/transformer/encoder/layers.4/attn/fn/Reshape_1_output_0)
  %/transformer/encoder/layers.4/attn/fn/Sqrt_1_output_0 = Sqrt(%/transformer/encoder/layers.4/attn/fn/Cast_1_output_0)
  %/transformer/encoder/layers.4/attn/fn/Mul_3_output_0 = Mul(%/transformer/encoder/layers.4/attn/fn/Transpose_output_0, %/transformer/encoder/layers.4/attn/fn/Sqrt_1_output_0)
  %/transformer/encoder/layers.4/attn/fn/Sqrt_2_output_0 = Sqrt(%/transformer/encoder/layers.4/attn/fn/Cast_1_output_0)
  %/transformer/encoder/layers.4/attn/fn/Mul_4_output_0 = Mul(%/transformer/encoder/layers.4/attn/fn/Transpose_2_output_0, %/transformer/encoder/layers.4/attn/fn/Sqrt_2_output_0)
  %/transformer/encoder/layers.4/attn/fn/MatMul_1_output_0 = MatMul(%/transformer/encoder/layers.4/attn/fn/Mul_3_output_0, %/transformer/encoder/layers.4/attn/fn/Mul_4_output_0)
  %/transformer/encoder/layers.4/attn/fn/Softmax_output_0 = Softmax[axis = -1](%/transformer/encoder/layers.4/attn/fn/MatMul_1_output_0)
  %/transformer/encoder/layers.4/attn/fn/MatMul_2_output_0 = MatMul(%/transformer/encoder/layers.4/attn/fn/Softmax_output_0, %/transformer/encoder/layers.4/attn/fn/Transpose_1_output_0)
  %/transformer/encoder/layers.4/attn/fn/Transpose_3_output_0 = Transpose[perm = [0, 2, 1, 3]](%/transformer/encoder/layers.4/attn/fn/MatMul_2_output_0)
  %onnx::Unsqueeze_974 = Constant[value = <Tensor>]()
  %/transformer/encoder/layers.4/attn/fn/Unsqueeze_3_output_0 = Unsqueeze(%/transformer/encoder/layers.4/attn/fn/Gather_output_0, %onnx::Unsqueeze_974)
  %/transformer/encoder/layers.4/attn/fn/Constant_20_output_0 = Constant[value = <Tensor>]()
  %/transformer/encoder/layers.4/attn/fn/Constant_21_output_0 = Constant[value = <Tensor>]()
  %/transformer/encoder/layers.4/attn/fn/Concat_3_output_0 = Concat[axis = 0](%/transformer/encoder/layers.4/attn/fn/Unsqueeze_3_output_0, %/transformer/encoder/layers.4/attn/fn/Constant_20_output_0, %/transformer/encoder/layers.4/attn/fn/Constant_21_output_0)
  %/transformer/encoder/layers.4/attn/fn/Reshape_3_output_0 = Reshape[allowzero = 0](%/transformer/encoder/layers.4/attn/fn/Transpose_3_output_0, %/transformer/encoder/layers.4/attn/fn/Concat_3_output_0)
  %/transformer/encoder/layers.4/attn/fn/attn_out/MatMul_output_0 = MatMul(%/transformer/encoder/layers.4/attn/fn/Reshape_3_output_0, %onnx::MatMul_17347)
  %/transformer/encoder/layers.4/attn/fn/attn_out/Add_output_0 = Add(%transformer.encoder.layers.4.attn.fn.attn_out.bias, %/transformer/encoder/layers.4/attn/fn/attn_out/MatMul_output_0)
  %/transformer/encoder/layers.4/attn/ls/Mul_output_0 = Mul(%/transformer/encoder/layers.4/attn/fn/attn_out/Add_output_0, %transformer.encoder.layers.4.attn.ls.gamma)
  %/transformer/encoder/layers.4/attn/Add_output_0 = Add(%/transformer/encoder/layers.4/attn/ls/Mul_output_0, %/transformer/encoder/layers.3/ff/Add_output_0)
  %/transformer/encoder/layers.4/ff/norm/ReduceMean_output_0 = ReduceMean[axes = [-1]](%/transformer/encoder/layers.4/attn/Add_output_0)
  %/transformer/encoder/layers.4/ff/norm/Sub_output_0 = Sub(%/transformer/encoder/layers.4/attn/Add_output_0, %/transformer/encoder/layers.4/ff/norm/ReduceMean_output_0)
  %/transformer/encoder/layers.4/ff/norm/Constant_output_0 = Constant[value = <Scalar Tensor []>]()
  %/transformer/encoder/layers.4/ff/norm/Pow_output_0 = Pow(%/transformer/encoder/layers.4/ff/norm/Sub_output_0, %/transformer/encoder/layers.4/ff/norm/Constant_output_0)
  %/transformer/encoder/layers.4/ff/norm/ReduceMean_1_output_0 = ReduceMean[axes = [-1]](%/transformer/encoder/layers.4/ff/norm/Pow_output_0)
  %/transformer/encoder/layers.4/ff/norm/Constant_1_output_0 = Constant[value = <Scalar Tensor []>]()
  %/transformer/encoder/layers.4/ff/norm/Add_output_0 = Add(%/transformer/encoder/layers.4/ff/norm/ReduceMean_1_output_0, %/transformer/encoder/layers.4/ff/norm/Constant_1_output_0)
  %/transformer/encoder/layers.4/ff/norm/Sqrt_output_0 = Sqrt(%/transformer/encoder/layers.4/ff/norm/Add_output_0)
  %/transformer/encoder/layers.4/ff/norm/Div_output_0 = Div(%/transformer/encoder/layers.4/ff/norm/Sub_output_0, %/transformer/encoder/layers.4/ff/norm/Sqrt_output_0)
  %/transformer/encoder/layers.4/ff/norm/Mul_output_0 = Mul(%/transformer/encoder/layers.4/ff/norm/Div_output_0, %transformer.encoder.layers.4.ff.norm.weight)
  %/transformer/encoder/layers.4/ff/norm/Add_1_output_0 = Add(%/transformer/encoder/layers.4/ff/norm/Mul_output_0, %transformer.encoder.layers.4.ff.norm.bias)
  %/transformer/encoder/layers.4/ff/fn/lin1/MatMul_output_0 = MatMul(%/transformer/encoder/layers.4/ff/norm/Add_1_output_0, %onnx::MatMul_17348)
  %/transformer/encoder/layers.4/ff/fn/lin1/Add_output_0 = Add(%transformer.encoder.layers.4.ff.fn.lin1.bias, %/transformer/encoder/layers.4/ff/fn/lin1/MatMul_output_0)
  %/transformer/encoder/layers.4/ff/fn/Shape_output_0 = Shape(%/transformer/encoder/layers.4/ff/fn/lin1/Add_output_0)
  %/transformer/encoder/layers.4/ff/fn/Constant_output_0 = Constant[value = <Tensor>]()
  %/transformer/encoder/layers.4/ff/fn/Gather_output_0 = Gather[axis = 0](%/transformer/encoder/layers.4/ff/fn/Shape_output_0, %/transformer/encoder/layers.4/ff/fn/Constant_output_0)
  %/transformer/encoder/layers.4/ff/fn/Constant_1_output_0 = Constant[value = <Tensor>]()
  %/transformer/encoder/layers.4/ff/fn/Constant_2_output_0 = Constant[value = <Tensor>]()
  %/transformer/encoder/layers.4/ff/fn/Add_output_0 = Add(%/transformer/encoder/layers.4/ff/fn/Gather_output_0, %/transformer/encoder/layers.4/ff/fn/Constant_2_output_0)
  %/transformer/encoder/layers.4/ff/fn/Constant_3_output_0 = Constant[value = <Tensor>]()
  %/transformer/encoder/layers.4/ff/fn/Div_output_0 = Div(%/transformer/encoder/layers.4/ff/fn/Add_output_0, %/transformer/encoder/layers.4/ff/fn/Constant_3_output_0)
  %/transformer/encoder/layers.4/ff/fn/Constant_4_output_0 = Constant[value = <Tensor>]()
  %/transformer/encoder/layers.4/ff/fn/Mul_output_0 = Mul(%/transformer/encoder/layers.4/ff/fn/Div_output_0, %/transformer/encoder/layers.4/ff/fn/Constant_4_output_0)
  %/transformer/encoder/layers.4/ff/fn/Slice_output_0 = Slice(%/transformer/encoder/layers.4/ff/fn/lin1/Add_output_0, %/transformer/encoder/layers.4/ff/fn/Constant_1_output_0, %/transformer/encoder/layers.4/ff/fn/Mul_output_0, %/transformer/encoder/layers.4/ff/fn/Constant_output_0)
  %/transformer/encoder/layers.4/ff/fn/Constant_5_output_0 = Constant[value = <Tensor>]()
  %/transformer/encoder/layers.4/ff/fn/Mul_1_output_0 = Mul(%/transformer/encoder/layers.4/ff/fn/Div_output_0, %/transformer/encoder/layers.4/ff/fn/Constant_5_output_0)
  %/transformer/encoder/layers.4/ff/fn/Slice_1_output_0 = Slice(%/transformer/encoder/layers.4/ff/fn/lin1/Add_output_0, %/transformer/encoder/layers.4/ff/fn/Mul_output_0, %/transformer/encoder/layers.4/ff/fn/Mul_1_output_0, %/transformer/encoder/layers.4/ff/fn/Constant_output_0)
  %/transformer/encoder/layers.4/ff/fn/Sigmoid_output_0 = Sigmoid(%/transformer/encoder/layers.4/ff/fn/Slice_output_0)
  %/transformer/encoder/layers.4/ff/fn/Mul_2_output_0 = Mul(%/transformer/encoder/layers.4/ff/fn/Slice_output_0, %/transformer/encoder/layers.4/ff/fn/Sigmoid_output_0)
  %/transformer/encoder/layers.4/ff/fn/Mul_3_output_0 = Mul(%/transformer/encoder/layers.4/ff/fn/Mul_2_output_0, %/transformer/encoder/layers.4/ff/fn/Slice_1_output_0)
  %/transformer/encoder/layers.4/ff/fn/lin2/MatMul_output_0 = MatMul(%/transformer/encoder/layers.4/ff/fn/Mul_3_output_0, %onnx::MatMul_17349)
  %/transformer/encoder/layers.4/ff/fn/lin2/Add_output_0 = Add(%transformer.encoder.layers.4.ff.fn.lin2.bias, %/transformer/encoder/layers.4/ff/fn/lin2/MatMul_output_0)
  %/transformer/encoder/layers.4/ff/ls/Mul_output_0 = Mul(%/transformer/encoder/layers.4/ff/fn/lin2/Add_output_0, %transformer.encoder.layers.4.ff.ls.gamma)
  %/transformer/encoder/layers.4/ff/Add_output_0 = Add(%/transformer/encoder/layers.4/ff/ls/Mul_output_0, %/transformer/encoder/layers.4/attn/Add_output_0)
  %/transformer/pool/linear_embed/MatMul_output_0 = MatMul(%/transformer/encoder/layers.4/ff/Add_output_0, %onnx::MatMul_17350)
  %/transformer/pool/linear_embed/Add_output_0 = Add(%transformer.pool.linear_embed.bias, %/transformer/pool/linear_embed/MatMul_output_0)
  %/transformer/pool/Shape_output_0 = Shape(%/transformer/pool/linear_embed/Add_output_0)
  %/transformer/pool/Constant_output_0 = Constant[value = <Scalar Tensor []>]()
  %/transformer/pool/Gather_output_0 = Gather[axis = 0](%/transformer/pool/Shape_output_0, %/transformer/pool/Constant_output_0)
  %/transformer/pool/Constant_1_output_0 = Constant[value = <Tensor>]()
  %/transformer/pool/Unsqueeze_output_0 = Unsqueeze(%/transformer/pool/Gather_output_0, %/transformer/pool/Constant_1_output_0)
  %/transformer/pool/Constant_2_output_0 = Constant[value = <Tensor>]()
  %/transformer/pool/Constant_3_output_0 = Constant[value = <Tensor>]()
  %/transformer/pool/Concat_output_0 = Concat[axis = 0](%/transformer/pool/Unsqueeze_output_0, %/transformer/pool/Constant_2_output_0, %/transformer/pool/Constant_3_output_0)
  %/transformer/pool/Constant_4_output_0 = Constant[value = <Tensor>]()
  %/transformer/pool/Reshape_output_0 = Reshape[allowzero = 0](%/transformer/pool/Concat_output_0, %/transformer/pool/Constant_4_output_0)
  %/transformer/pool/Shape_1_output_0 = Shape(%/transformer/pool/Reshape_output_0)
  %/transformer/pool/ConstantOfShape_output_0 = ConstantOfShape[value = <Tensor>](%/transformer/pool/Shape_1_output_0)
  %/transformer/pool/Constant_5_output_0 = Constant[value = <Scalar Tensor []>]()
  %/transformer/pool/Mul_output_0 = Mul(%/transformer/pool/ConstantOfShape_output_0, %/transformer/pool/Constant_5_output_0)
  %/transformer/pool/Equal_output_0 = Equal(%/transformer/pool/Reshape_output_0, %/transformer/pool/Mul_output_0)
  %/transformer/pool/Where_output_0 = Where(%/transformer/pool/Equal_output_0, %/transformer/pool/ConstantOfShape_output_0, %/transformer/pool/Reshape_output_0)
  %/transformer/pool/Expand_output_0 = Expand(%transformer.pool.global_token, %/transformer/pool/Where_output_0)
  %/transformer/pool/layers.0/attn/fn/Shape_output_0 = Shape(%/transformer/pool/Expand_output_0)
  %/transformer/pool/layers.0/attn/fn/Constant_output_0 = Constant[value = <Scalar Tensor []>]()
  %/transformer/pool/layers.0/attn/fn/Gather_output_0 = Gather[axis = 0](%/transformer/pool/layers.0/attn/fn/Shape_output_0, %/transformer/pool/layers.0/attn/fn/Constant_output_0)
  %/transformer/pool/layers.0/attn/fn/Shape_1_output_0 = Shape(%/transformer/pool/Expand_output_0)
  %/transformer/pool/layers.0/attn/fn/Constant_1_output_0 = Constant[value = <Tensor>]()
  %/transformer/pool/layers.0/attn/fn/Constant_2_output_0 = Constant[value = <Tensor>]()
  %/transformer/pool/layers.0/attn/fn/Constant_3_output_0 = Constant[value = <Tensor>]()
  %/transformer/pool/layers.0/attn/fn/Slice_output_0 = Slice(%/transformer/pool/layers.0/attn/fn/Shape_1_output_0, %/transformer/pool/layers.0/attn/fn/Constant_2_output_0, %/transformer/pool/layers.0/attn/fn/Constant_3_output_0, %/transformer/pool/layers.0/attn/fn/Constant_1_output_0)
  %/transformer/pool/layers.0/attn/fn/Constant_4_output_0 = Constant[value = <Tensor>]()
  %/transformer/pool/layers.0/attn/fn/Squeeze_output_0 = Squeeze(%/transformer/pool/layers.0/attn/fn/Slice_output_0, %/transformer/pool/layers.0/attn/fn/Constant_4_output_0)
  %/transformer/pool/layers.0/attn/fn/Constant_5_output_0 = Constant[value = <Scalar Tensor []>]()
  %/transformer/pool/layers.0/attn/fn/Mul_output_0 = Mul(%/transformer/pool/layers.0/attn/fn/Squeeze_output_0, %/transformer/pool/layers.0/attn/fn/Constant_5_output_0)
  %/transformer/pool/layers.0/attn/fn/Constant_6_output_0 = Constant[value = <Tensor>]()
  %/transformer/pool/layers.0/attn/fn/Unsqueeze_output_0 = Unsqueeze(%/transformer/pool/layers.0/attn/fn/Squeeze_output_0, %/transformer/pool/layers.0/attn/fn/Constant_6_output_0)
  %/transformer/pool/layers.0/attn/fn/Constant_7_output_0 = Constant[value = <Tensor>]()
  %/transformer/pool/layers.0/attn/fn/Unsqueeze_1_output_0 = Unsqueeze(%/transformer/pool/layers.0/attn/fn/Mul_output_0, %/transformer/pool/layers.0/attn/fn/Constant_7_output_0)
  %/transformer/pool/layers.0/attn/fn/Constant_8_output_0 = Constant[value = <Tensor>]()
  %/transformer/pool/layers.0/attn/fn/Constant_9_output_0 = Constant[value = <Tensor>]()
  %/transformer/pool/layers.0/attn/fn/Constant_10_output_0 = Constant[value = <Tensor>]()
  %/transformer/pool/layers.0/attn/fn/Add_output_0 = Add(%/transformer/pool/layers.0/attn/fn/Constant_10_output_0, %/transformer/pool/layers.0/attn/fn/Unsqueeze_output_0)
  %/transformer/pool/layers.0/attn/fn/Slice_1_output_0 = Slice(%transformer.pool.layers.0.attn.fn.attn_in_w, %/transformer/pool/layers.0/attn/fn/Constant_8_output_0, %/transformer/pool/layers.0/attn/fn/Add_output_0, %/transformer/pool/layers.0/attn/fn/Constant_9_output_0)
  %/transformer/pool/layers.0/attn/fn/Add_1_output_0 = Add(%/transformer/pool/layers.0/attn/fn/Add_output_0, %/transformer/pool/layers.0/attn/fn/Unsqueeze_1_output_0)
  %/transformer/pool/layers.0/attn/fn/Slice_2_output_0 = Slice(%transformer.pool.layers.0.attn.fn.attn_in_w, %/transformer/pool/layers.0/attn/fn/Add_output_0, %/transformer/pool/layers.0/attn/fn/Add_1_output_0, %/transformer/pool/layers.0/attn/fn/Constant_9_output_0)
  %/transformer/pool/layers.0/attn/fn/Constant_11_output_0 = Constant[value = <Tensor>]()
  %/transformer/pool/layers.0/attn/fn/Unsqueeze_2_output_0 = Unsqueeze(%/transformer/pool/layers.0/attn/fn/Squeeze_output_0, %/transformer/pool/layers.0/attn/fn/Constant_11_output_0)
  %/transformer/pool/layers.0/attn/fn/Constant_12_output_0 = Constant[value = <Tensor>]()
  %/transformer/pool/layers.0/attn/fn/Unsqueeze_3_output_0 = Unsqueeze(%/transformer/pool/layers.0/attn/fn/Mul_output_0, %/transformer/pool/layers.0/attn/fn/Constant_12_output_0)
  %/transformer/pool/layers.0/attn/fn/Constant_13_output_0 = Constant[value = <Tensor>]()
  %/transformer/pool/layers.0/attn/fn/Constant_14_output_0 = Constant[value = <Tensor>]()
  %/transformer/pool/layers.0/attn/fn/Constant_15_output_0 = Constant[value = <Tensor>]()
  %/transformer/pool/layers.0/attn/fn/Add_2_output_0 = Add(%/transformer/pool/layers.0/attn/fn/Constant_15_output_0, %/transformer/pool/layers.0/attn/fn/Unsqueeze_2_output_0)
  %/transformer/pool/layers.0/attn/fn/Slice_3_output_0 = Slice(%transformer.pool.layers.0.attn.fn.attn_in_b, %/transformer/pool/layers.0/attn/fn/Constant_13_output_0, %/transformer/pool/layers.0/attn/fn/Add_2_output_0, %/transformer/pool/layers.0/attn/fn/Constant_14_output_0)
  %/transformer/pool/layers.0/attn/fn/Add_3_output_0 = Add(%/transformer/pool/layers.0/attn/fn/Add_2_output_0, %/transformer/pool/layers.0/attn/fn/Unsqueeze_3_output_0)
  %/transformer/pool/layers.0/attn/fn/Slice_4_output_0 = Slice(%transformer.pool.layers.0.attn.fn.attn_in_b, %/transformer/pool/layers.0/attn/fn/Add_2_output_0, %/transformer/pool/layers.0/attn/fn/Add_3_output_0, %/transformer/pool/layers.0/attn/fn/Constant_14_output_0)
  %/transformer/pool/layers.0/attn/fn/Transpose_output_0 = Transpose[perm = [1, 0]](%/transformer/pool/layers.0/attn/fn/Slice_1_output_0)
  %/transformer/pool/layers.0/attn/fn/MatMul_output_0 = MatMul(%/transformer/pool/Expand_output_0, %/transformer/pool/layers.0/attn/fn/Transpose_output_0)
  %/transformer/pool/layers.0/attn/fn/Add_4_output_0 = Add(%/transformer/pool/layers.0/attn/fn/Slice_3_output_0, %/transformer/pool/layers.0/attn/fn/MatMul_output_0)
  %/transformer/pool/layers.0/attn/fn/Transpose_1_output_0 = Transpose[perm = [1, 0]](%/transformer/pool/layers.0/attn/fn/Slice_2_output_0)
  %/transformer/pool/layers.0/attn/fn/MatMul_1_output_0 = MatMul(%/transformer/pool/linear_embed/Add_output_0, %/transformer/pool/layers.0/attn/fn/Transpose_1_output_0)
  %/transformer/pool/layers.0/attn/fn/Add_5_output_0 = Add(%/transformer/pool/layers.0/attn/fn/Slice_4_output_0, %/transformer/pool/layers.0/attn/fn/MatMul_1_output_0)
  %/transformer/pool/layers.0/attn/fn/Shape_2_output_0 = Shape(%/transformer/pool/layers.0/attn/fn/Add_5_output_0)
  %/transformer/pool/layers.0/attn/fn/Constant_16_output_0 = Constant[value = <Tensor>]()
  %/transformer/pool/layers.0/attn/fn/Gather_1_output_0 = Gather[axis = 0](%/transformer/pool/layers.0/attn/fn/Shape_2_output_0, %/transformer/pool/layers.0/attn/fn/Constant_16_output_0)
  %/transformer/pool/layers.0/attn/fn/Constant_17_output_0 = Constant[value = <Tensor>]()
  %/transformer/pool/layers.0/attn/fn/Constant_18_output_0 = Constant[value = <Tensor>]()
  %/transformer/pool/layers.0/attn/fn/Add_6_output_0 = Add(%/transformer/pool/layers.0/attn/fn/Gather_1_output_0, %/transformer/pool/layers.0/attn/fn/Constant_18_output_0)
  %/transformer/pool/layers.0/attn/fn/Constant_19_output_0 = Constant[value = <Tensor>]()
  %/transformer/pool/layers.0/attn/fn/Div_output_0 = Div(%/transformer/pool/layers.0/attn/fn/Add_6_output_0, %/transformer/pool/layers.0/attn/fn/Constant_19_output_0)
  %/transformer/pool/layers.0/attn/fn/Constant_20_output_0 = Constant[value = <Tensor>]()
  %/transformer/pool/layers.0/attn/fn/Mul_1_output_0 = Mul(%/transformer/pool/layers.0/attn/fn/Div_output_0, %/transformer/pool/layers.0/attn/fn/Constant_20_output_0)
  %/transformer/pool/layers.0/attn/fn/Slice_5_output_0 = Slice(%/transformer/pool/layers.0/attn/fn/Add_5_output_0, %/transformer/pool/layers.0/attn/fn/Constant_17_output_0, %/transformer/pool/layers.0/attn/fn/Mul_1_output_0, %/transformer/pool/layers.0/attn/fn/Constant_16_output_0)
  %/transformer/pool/layers.0/attn/fn/Constant_21_output_0 = Constant[value = <Tensor>]()
  %/transformer/pool/layers.0/attn/fn/Mul_2_output_0 = Mul(%/transformer/pool/layers.0/attn/fn/Div_output_0, %/transformer/pool/layers.0/attn/fn/Constant_21_output_0)
  %/transformer/pool/layers.0/attn/fn/Slice_6_output_0 = Slice(%/transformer/pool/layers.0/attn/fn/Add_5_output_0, %/transformer/pool/layers.0/attn/fn/Mul_1_output_0, %/transformer/pool/layers.0/attn/fn/Mul_2_output_0, %/transformer/pool/layers.0/attn/fn/Constant_16_output_0)
  %onnx::Unsqueeze_1101 = Constant[value = <Tensor>]()
  %/transformer/pool/layers.0/attn/fn/Unsqueeze_4_output_0 = Unsqueeze(%/transformer/pool/layers.0/attn/fn/Gather_output_0, %onnx::Unsqueeze_1101)
  %/transformer/pool/layers.0/attn/fn/Constant_22_output_0 = Constant[value = <Tensor>]()
  %/transformer/pool/layers.0/attn/fn/Constant_23_output_0 = Constant[value = <Tensor>]()
  %/transformer/pool/layers.0/attn/fn/Constant_24_output_0 = Constant[value = <Tensor>]()
  %/transformer/pool/layers.0/attn/fn/Concat_output_0 = Concat[axis = 0](%/transformer/pool/layers.0/attn/fn/Unsqueeze_4_output_0, %/transformer/pool/layers.0/attn/fn/Constant_22_output_0, %/transformer/pool/layers.0/attn/fn/Constant_23_output_0, %/transformer/pool/layers.0/attn/fn/Constant_24_output_0)
  %onnx::Unsqueeze_1110 = Constant[value = <Tensor>]()
  %/transformer/pool/layers.0/attn/fn/Unsqueeze_5_output_0 = Unsqueeze(%/transformer/pool/layers.0/attn/fn/Gather_output_0, %onnx::Unsqueeze_1110)
  %/transformer/pool/layers.0/attn/fn/Constant_25_output_0 = Constant[value = <Tensor>]()
  %/transformer/pool/layers.0/attn/fn/Constant_26_output_0 = Constant[value = <Tensor>]()
  %/transformer/pool/layers.0/attn/fn/Constant_27_output_0 = Constant[value = <Tensor>]()
  %/transformer/pool/layers.0/attn/fn/Concat_1_output_0 = Concat[axis = 0](%/transformer/pool/layers.0/attn/fn/Unsqueeze_5_output_0, %/transformer/pool/layers.0/attn/fn/Constant_25_output_0, %/transformer/pool/layers.0/attn/fn/Constant_26_output_0, %/transformer/pool/layers.0/attn/fn/Constant_27_output_0)
  %onnx::Unsqueeze_1119 = Constant[value = <Tensor>]()
  %/transformer/pool/layers.0/attn/fn/Unsqueeze_6_output_0 = Unsqueeze(%/transformer/pool/layers.0/attn/fn/Gather_output_0, %onnx::Unsqueeze_1119)
  %/transformer/pool/layers.0/attn/fn/Constant_28_output_0 = Constant[value = <Tensor>]()
  %/transformer/pool/layers.0/attn/fn/Constant_29_output_0 = Constant[value = <Tensor>]()
  %/transformer/pool/layers.0/attn/fn/Constant_30_output_0 = Constant[value = <Tensor>]()
  %/transformer/pool/layers.0/attn/fn/Concat_2_output_0 = Concat[axis = 0](%/transformer/pool/layers.0/attn/fn/Unsqueeze_6_output_0, %/transformer/pool/layers.0/attn/fn/Constant_28_output_0, %/transformer/pool/layers.0/attn/fn/Constant_29_output_0, %/transformer/pool/layers.0/attn/fn/Constant_30_output_0)
  %/transformer/pool/layers.0/attn/fn/Reshape_output_0 = Reshape[allowzero = 0](%/transformer/pool/layers.0/attn/fn/Add_4_output_0, %/transformer/pool/layers.0/attn/fn/Concat_output_0)
  %/transformer/pool/layers.0/attn/fn/Transpose_2_output_0 = Transpose[perm = [0, 2, 1, 3]](%/transformer/pool/layers.0/attn/fn/Reshape_output_0)
  %/transformer/pool/layers.0/attn/fn/Reshape_1_output_0 = Reshape[allowzero = 0](%/transformer/pool/layers.0/attn/fn/Slice_5_output_0, %/transformer/pool/layers.0/attn/fn/Concat_1_output_0)
  %/transformer/pool/layers.0/attn/fn/Reshape_2_output_0 = Reshape[allowzero = 0](%/transformer/pool/layers.0/attn/fn/Slice_6_output_0, %/transformer/pool/layers.0/attn/fn/Concat_2_output_0)
  %/transformer/pool/layers.0/attn/fn/Transpose_3_output_0 = Transpose[perm = [0, 2, 1, 3]](%/transformer/pool/layers.0/attn/fn/Reshape_2_output_0)
  %/transformer/pool/layers.0/attn/fn/Shape_3_output_0 = Shape(%/transformer/pool/layers.0/attn/fn/Transpose_2_output_0)
  %/transformer/pool/layers.0/attn/fn/Constant_31_output_0 = Constant[value = <Tensor>]()
  %/transformer/pool/layers.0/attn/fn/Constant_32_output_0 = Constant[value = <Tensor>]()
  %/transformer/pool/layers.0/attn/fn/Slice_7_output_0 = Slice(%/transformer/pool/layers.0/attn/fn/Shape_3_output_0, %/transformer/pool/layers.0/attn/fn/Constant_31_output_0, %/transformer/pool/layers.0/attn/fn/Constant_32_output_0)
  %/transformer/pool/layers.0/attn/fn/Cast_output_0 = Cast[to = 1](%/transformer/pool/layers.0/attn/fn/Slice_7_output_0)
  %/transformer/pool/layers.0/attn/fn/Sqrt_output_0 = Sqrt(%/transformer/pool/layers.0/attn/fn/Cast_output_0)
  %/transformer/pool/layers.0/attn/fn/Constant_33_output_0 = Constant[value = <Tensor>]()
  %/transformer/pool/layers.0/attn/fn/Div_1_output_0 = Div(%/transformer/pool/layers.0/attn/fn/Constant_33_output_0, %/transformer/pool/layers.0/attn/fn/Sqrt_output_0)
  %/transformer/pool/layers.0/attn/fn/Cast_1_output_0 = Cast[to = 1](%/transformer/pool/layers.0/attn/fn/Div_1_output_0)
  %/transformer/pool/layers.0/attn/fn/Transpose_4_output_0 = Transpose[perm = [0, 2, 3, 1]](%/transformer/pool/layers.0/attn/fn/Reshape_1_output_0)
  %/transformer/pool/layers.0/attn/fn/Sqrt_1_output_0 = Sqrt(%/transformer/pool/layers.0/attn/fn/Cast_1_output_0)
  %/transformer/pool/layers.0/attn/fn/Mul_3_output_0 = Mul(%/transformer/pool/layers.0/attn/fn/Transpose_2_output_0, %/transformer/pool/layers.0/attn/fn/Sqrt_1_output_0)
  %/transformer/pool/layers.0/attn/fn/Sqrt_2_output_0 = Sqrt(%/transformer/pool/layers.0/attn/fn/Cast_1_output_0)
  %/transformer/pool/layers.0/attn/fn/Mul_4_output_0 = Mul(%/transformer/pool/layers.0/attn/fn/Transpose_4_output_0, %/transformer/pool/layers.0/attn/fn/Sqrt_2_output_0)
  %/transformer/pool/layers.0/attn/fn/MatMul_2_output_0 = MatMul(%/transformer/pool/layers.0/attn/fn/Mul_3_output_0, %/transformer/pool/layers.0/attn/fn/Mul_4_output_0)
  %/transformer/pool/layers.0/attn/fn/Softmax_output_0 = Softmax[axis = -1](%/transformer/pool/layers.0/attn/fn/MatMul_2_output_0)
  %/transformer/pool/layers.0/attn/fn/MatMul_3_output_0 = MatMul(%/transformer/pool/layers.0/attn/fn/Softmax_output_0, %/transformer/pool/layers.0/attn/fn/Transpose_3_output_0)
  %/transformer/pool/layers.0/attn/fn/Transpose_5_output_0 = Transpose[perm = [0, 2, 1, 3]](%/transformer/pool/layers.0/attn/fn/MatMul_3_output_0)
  %onnx::Unsqueeze_1151 = Constant[value = <Tensor>]()
  %/transformer/pool/layers.0/attn/fn/Unsqueeze_7_output_0 = Unsqueeze(%/transformer/pool/layers.0/attn/fn/Gather_output_0, %onnx::Unsqueeze_1151)
  %/transformer/pool/layers.0/attn/fn/Constant_34_output_0 = Constant[value = <Tensor>]()
  %/transformer/pool/layers.0/attn/fn/Constant_35_output_0 = Constant[value = <Tensor>]()
  %/transformer/pool/layers.0/attn/fn/Concat_3_output_0 = Concat[axis = 0](%/transformer/pool/layers.0/attn/fn/Unsqueeze_7_output_0, %/transformer/pool/layers.0/attn/fn/Constant_34_output_0, %/transformer/pool/layers.0/attn/fn/Constant_35_output_0)
  %/transformer/pool/layers.0/attn/fn/Reshape_3_output_0 = Reshape[allowzero = 0](%/transformer/pool/layers.0/attn/fn/Transpose_5_output_0, %/transformer/pool/layers.0/attn/fn/Concat_3_output_0)
  %/transformer/pool/layers.0/attn/fn/attn_out/MatMul_output_0 = MatMul(%/transformer/pool/layers.0/attn/fn/Reshape_3_output_0, %onnx::MatMul_17364)
  %/transformer/pool/layers.0/attn/fn/attn_out/Add_output_0 = Add(%transformer.pool.layers.0.attn.fn.attn_out.bias, %/transformer/pool/layers.0/attn/fn/attn_out/MatMul_output_0)
  %/transformer/pool/layers.0/attn/Add_output_0 = Add(%/transformer/pool/layers.0/attn/fn/attn_out/Add_output_0, %/transformer/pool/Expand_output_0)
  %/transformer/pool/layers.0/ff/fn/lin1/MatMul_output_0 = MatMul(%/transformer/pool/layers.0/attn/Add_output_0, %onnx::MatMul_17365)
  %/transformer/pool/layers.0/ff/fn/lin1/Add_output_0 = Add(%transformer.pool.layers.0.ff.fn.lin1.bias, %/transformer/pool/layers.0/ff/fn/lin1/MatMul_output_0)
  %/transformer/pool/layers.0/ff/fn/Shape_output_0 = Shape(%/transformer/pool/layers.0/ff/fn/lin1/Add_output_0)
  %/transformer/pool/layers.0/ff/fn/Constant_output_0 = Constant[value = <Tensor>]()
  %/transformer/pool/layers.0/ff/fn/Gather_output_0 = Gather[axis = 0](%/transformer/pool/layers.0/ff/fn/Shape_output_0, %/transformer/pool/layers.0/ff/fn/Constant_output_0)
  %/transformer/pool/layers.0/ff/fn/Constant_1_output_0 = Constant[value = <Tensor>]()
  %/transformer/pool/layers.0/ff/fn/Constant_2_output_0 = Constant[value = <Tensor>]()
  %/transformer/pool/layers.0/ff/fn/Add_output_0 = Add(%/transformer/pool/layers.0/ff/fn/Gather_output_0, %/transformer/pool/layers.0/ff/fn/Constant_2_output_0)
  %/transformer/pool/layers.0/ff/fn/Constant_3_output_0 = Constant[value = <Tensor>]()
  %/transformer/pool/layers.0/ff/fn/Div_output_0 = Div(%/transformer/pool/layers.0/ff/fn/Add_output_0, %/transformer/pool/layers.0/ff/fn/Constant_3_output_0)
  %/transformer/pool/layers.0/ff/fn/Constant_4_output_0 = Constant[value = <Tensor>]()
  %/transformer/pool/layers.0/ff/fn/Mul_output_0 = Mul(%/transformer/pool/layers.0/ff/fn/Div_output_0, %/transformer/pool/layers.0/ff/fn/Constant_4_output_0)
  %/transformer/pool/layers.0/ff/fn/Slice_output_0 = Slice(%/transformer/pool/layers.0/ff/fn/lin1/Add_output_0, %/transformer/pool/layers.0/ff/fn/Constant_1_output_0, %/transformer/pool/layers.0/ff/fn/Mul_output_0, %/transformer/pool/layers.0/ff/fn/Constant_output_0)
  %/transformer/pool/layers.0/ff/fn/Constant_5_output_0 = Constant[value = <Tensor>]()
  %/transformer/pool/layers.0/ff/fn/Mul_1_output_0 = Mul(%/transformer/pool/layers.0/ff/fn/Div_output_0, %/transformer/pool/layers.0/ff/fn/Constant_5_output_0)
  %/transformer/pool/layers.0/ff/fn/Slice_1_output_0 = Slice(%/transformer/pool/layers.0/ff/fn/lin1/Add_output_0, %/transformer/pool/layers.0/ff/fn/Mul_output_0, %/transformer/pool/layers.0/ff/fn/Mul_1_output_0, %/transformer/pool/layers.0/ff/fn/Constant_output_0)
  %/transformer/pool/layers.0/ff/fn/Sigmoid_output_0 = Sigmoid(%/transformer/pool/layers.0/ff/fn/Slice_output_0)
  %/transformer/pool/layers.0/ff/fn/Mul_2_output_0 = Mul(%/transformer/pool/layers.0/ff/fn/Slice_output_0, %/transformer/pool/layers.0/ff/fn/Sigmoid_output_0)
  %/transformer/pool/layers.0/ff/fn/Mul_3_output_0 = Mul(%/transformer/pool/layers.0/ff/fn/Mul_2_output_0, %/transformer/pool/layers.0/ff/fn/Slice_1_output_0)
  %/transformer/pool/layers.0/ff/fn/lin2/MatMul_output_0 = MatMul(%/transformer/pool/layers.0/ff/fn/Mul_3_output_0, %onnx::MatMul_17366)
  %/transformer/pool/layers.0/ff/fn/lin2/Add_output_0 = Add(%transformer.pool.layers.0.ff.fn.lin2.bias, %/transformer/pool/layers.0/ff/fn/lin2/MatMul_output_0)
  %/transformer/pool/layers.0/ff/Add_output_0 = Add(%/transformer/pool/layers.0/ff/fn/lin2/Add_output_0, %/transformer/pool/layers.0/attn/Add_output_0)
  %/transformer/pool/layers.1/attn/fn/Shape_output_0 = Shape(%/transformer/pool/layers.0/ff/Add_output_0)
  %/transformer/pool/layers.1/attn/fn/Constant_output_0 = Constant[value = <Scalar Tensor []>]()
  %/transformer/pool/layers.1/attn/fn/Gather_output_0 = Gather[axis = 0](%/transformer/pool/layers.1/attn/fn/Shape_output_0, %/transformer/pool/layers.1/attn/fn/Constant_output_0)
  %/transformer/pool/layers.1/attn/fn/Shape_1_output_0 = Shape(%/transformer/pool/layers.0/ff/Add_output_0)
  %/transformer/pool/layers.1/attn/fn/Constant_1_output_0 = Constant[value = <Tensor>]()
  %/transformer/pool/layers.1/attn/fn/Constant_2_output_0 = Constant[value = <Tensor>]()
  %/transformer/pool/layers.1/attn/fn/Constant_3_output_0 = Constant[value = <Tensor>]()
  %/transformer/pool/layers.1/attn/fn/Slice_output_0 = Slice(%/transformer/pool/layers.1/attn/fn/Shape_1_output_0, %/transformer/pool/layers.1/attn/fn/Constant_2_output_0, %/transformer/pool/layers.1/attn/fn/Constant_3_output_0, %/transformer/pool/layers.1/attn/fn/Constant_1_output_0)
  %/transformer/pool/layers.1/attn/fn/Constant_4_output_0 = Constant[value = <Tensor>]()
  %/transformer/pool/layers.1/attn/fn/Squeeze_output_0 = Squeeze(%/transformer/pool/layers.1/attn/fn/Slice_output_0, %/transformer/pool/layers.1/attn/fn/Constant_4_output_0)
  %/transformer/pool/layers.1/attn/fn/Constant_5_output_0 = Constant[value = <Scalar Tensor []>]()
  %/transformer/pool/layers.1/attn/fn/Mul_output_0 = Mul(%/transformer/pool/layers.1/attn/fn/Squeeze_output_0, %/transformer/pool/layers.1/attn/fn/Constant_5_output_0)
  %/transformer/pool/layers.1/attn/fn/Constant_6_output_0 = Constant[value = <Tensor>]()
  %/transformer/pool/layers.1/attn/fn/Unsqueeze_output_0 = Unsqueeze(%/transformer/pool/layers.1/attn/fn/Squeeze_output_0, %/transformer/pool/layers.1/attn/fn/Constant_6_output_0)
  %/transformer/pool/layers.1/attn/fn/Constant_7_output_0 = Constant[value = <Tensor>]()
  %/transformer/pool/layers.1/attn/fn/Unsqueeze_1_output_0 = Unsqueeze(%/transformer/pool/layers.1/attn/fn/Mul_output_0, %/transformer/pool/layers.1/attn/fn/Constant_7_output_0)
  %/transformer/pool/layers.1/attn/fn/Constant_8_output_0 = Constant[value = <Tensor>]()
  %/transformer/pool/layers.1/attn/fn/Constant_9_output_0 = Constant[value = <Tensor>]()
  %/transformer/pool/layers.1/attn/fn/Constant_10_output_0 = Constant[value = <Tensor>]()
  %/transformer/pool/layers.1/attn/fn/Add_output_0 = Add(%/transformer/pool/layers.1/attn/fn/Constant_10_output_0, %/transformer/pool/layers.1/attn/fn/Unsqueeze_output_0)
  %/transformer/pool/layers.1/attn/fn/Slice_1_output_0 = Slice(%transformer.pool.layers.1.attn.fn.attn_in_w, %/transformer/pool/layers.1/attn/fn/Constant_8_output_0, %/transformer/pool/layers.1/attn/fn/Add_output_0, %/transformer/pool/layers.1/attn/fn/Constant_9_output_0)
  %/transformer/pool/layers.1/attn/fn/Add_1_output_0 = Add(%/transformer/pool/layers.1/attn/fn/Add_output_0, %/transformer/pool/layers.1/attn/fn/Unsqueeze_1_output_0)
  %/transformer/pool/layers.1/attn/fn/Slice_2_output_0 = Slice(%transformer.pool.layers.1.attn.fn.attn_in_w, %/transformer/pool/layers.1/attn/fn/Add_output_0, %/transformer/pool/layers.1/attn/fn/Add_1_output_0, %/transformer/pool/layers.1/attn/fn/Constant_9_output_0)
  %/transformer/pool/layers.1/attn/fn/Constant_11_output_0 = Constant[value = <Tensor>]()
  %/transformer/pool/layers.1/attn/fn/Unsqueeze_2_output_0 = Unsqueeze(%/transformer/pool/layers.1/attn/fn/Squeeze_output_0, %/transformer/pool/layers.1/attn/fn/Constant_11_output_0)
  %/transformer/pool/layers.1/attn/fn/Constant_12_output_0 = Constant[value = <Tensor>]()
  %/transformer/pool/layers.1/attn/fn/Unsqueeze_3_output_0 = Unsqueeze(%/transformer/pool/layers.1/attn/fn/Mul_output_0, %/transformer/pool/layers.1/attn/fn/Constant_12_output_0)
  %/transformer/pool/layers.1/attn/fn/Constant_13_output_0 = Constant[value = <Tensor>]()
  %/transformer/pool/layers.1/attn/fn/Constant_14_output_0 = Constant[value = <Tensor>]()
  %/transformer/pool/layers.1/attn/fn/Constant_15_output_0 = Constant[value = <Tensor>]()
  %/transformer/pool/layers.1/attn/fn/Add_2_output_0 = Add(%/transformer/pool/layers.1/attn/fn/Constant_15_output_0, %/transformer/pool/layers.1/attn/fn/Unsqueeze_2_output_0)
  %/transformer/pool/layers.1/attn/fn/Slice_3_output_0 = Slice(%transformer.pool.layers.1.attn.fn.attn_in_b, %/transformer/pool/layers.1/attn/fn/Constant_13_output_0, %/transformer/pool/layers.1/attn/fn/Add_2_output_0, %/transformer/pool/layers.1/attn/fn/Constant_14_output_0)
  %/transformer/pool/layers.1/attn/fn/Add_3_output_0 = Add(%/transformer/pool/layers.1/attn/fn/Add_2_output_0, %/transformer/pool/layers.1/attn/fn/Unsqueeze_3_output_0)
  %/transformer/pool/layers.1/attn/fn/Slice_4_output_0 = Slice(%transformer.pool.layers.1.attn.fn.attn_in_b, %/transformer/pool/layers.1/attn/fn/Add_2_output_0, %/transformer/pool/layers.1/attn/fn/Add_3_output_0, %/transformer/pool/layers.1/attn/fn/Constant_14_output_0)
  %/transformer/pool/layers.1/attn/fn/Transpose_output_0 = Transpose[perm = [1, 0]](%/transformer/pool/layers.1/attn/fn/Slice_1_output_0)
  %/transformer/pool/layers.1/attn/fn/MatMul_output_0 = MatMul(%/transformer/pool/layers.0/ff/Add_output_0, %/transformer/pool/layers.1/attn/fn/Transpose_output_0)
  %/transformer/pool/layers.1/attn/fn/Add_4_output_0 = Add(%/transformer/pool/layers.1/attn/fn/Slice_3_output_0, %/transformer/pool/layers.1/attn/fn/MatMul_output_0)
  %/transformer/pool/layers.1/attn/fn/Transpose_1_output_0 = Transpose[perm = [1, 0]](%/transformer/pool/layers.1/attn/fn/Slice_2_output_0)
  %/transformer/pool/layers.1/attn/fn/MatMul_1_output_0 = MatMul(%/transformer/pool/linear_embed/Add_output_0, %/transformer/pool/layers.1/attn/fn/Transpose_1_output_0)
  %/transformer/pool/layers.1/attn/fn/Add_5_output_0 = Add(%/transformer/pool/layers.1/attn/fn/Slice_4_output_0, %/transformer/pool/layers.1/attn/fn/MatMul_1_output_0)
  %/transformer/pool/layers.1/attn/fn/Shape_2_output_0 = Shape(%/transformer/pool/layers.1/attn/fn/Add_5_output_0)
  %/transformer/pool/layers.1/attn/fn/Constant_16_output_0 = Constant[value = <Tensor>]()
  %/transformer/pool/layers.1/attn/fn/Gather_1_output_0 = Gather[axis = 0](%/transformer/pool/layers.1/attn/fn/Shape_2_output_0, %/transformer/pool/layers.1/attn/fn/Constant_16_output_0)
  %/transformer/pool/layers.1/attn/fn/Constant_17_output_0 = Constant[value = <Tensor>]()
  %/transformer/pool/layers.1/attn/fn/Constant_18_output_0 = Constant[value = <Tensor>]()
  %/transformer/pool/layers.1/attn/fn/Add_6_output_0 = Add(%/transformer/pool/layers.1/attn/fn/Gather_1_output_0, %/transformer/pool/layers.1/attn/fn/Constant_18_output_0)
  %/transformer/pool/layers.1/attn/fn/Constant_19_output_0 = Constant[value = <Tensor>]()
  %/transformer/pool/layers.1/attn/fn/Div_output_0 = Div(%/transformer/pool/layers.1/attn/fn/Add_6_output_0, %/transformer/pool/layers.1/attn/fn/Constant_19_output_0)
  %/transformer/pool/layers.1/attn/fn/Constant_20_output_0 = Constant[value = <Tensor>]()
  %/transformer/pool/layers.1/attn/fn/Mul_1_output_0 = Mul(%/transformer/pool/layers.1/attn/fn/Div_output_0, %/transformer/pool/layers.1/attn/fn/Constant_20_output_0)
  %/transformer/pool/layers.1/attn/fn/Slice_5_output_0 = Slice(%/transformer/pool/layers.1/attn/fn/Add_5_output_0, %/transformer/pool/layers.1/attn/fn/Constant_17_output_0, %/transformer/pool/layers.1/attn/fn/Mul_1_output_0, %/transformer/pool/layers.1/attn/fn/Constant_16_output_0)
  %/transformer/pool/layers.1/attn/fn/Constant_21_output_0 = Constant[value = <Tensor>]()
  %/transformer/pool/layers.1/attn/fn/Mul_2_output_0 = Mul(%/transformer/pool/layers.1/attn/fn/Div_output_0, %/transformer/pool/layers.1/attn/fn/Constant_21_output_0)
  %/transformer/pool/layers.1/attn/fn/Slice_6_output_0 = Slice(%/transformer/pool/layers.1/attn/fn/Add_5_output_0, %/transformer/pool/layers.1/attn/fn/Mul_1_output_0, %/transformer/pool/layers.1/attn/fn/Mul_2_output_0, %/transformer/pool/layers.1/attn/fn/Constant_16_output_0)
  %onnx::Unsqueeze_1241 = Constant[value = <Tensor>]()
  %/transformer/pool/layers.1/attn/fn/Unsqueeze_4_output_0 = Unsqueeze(%/transformer/pool/layers.1/attn/fn/Gather_output_0, %onnx::Unsqueeze_1241)
  %/transformer/pool/layers.1/attn/fn/Constant_22_output_0 = Constant[value = <Tensor>]()
  %/transformer/pool/layers.1/attn/fn/Constant_23_output_0 = Constant[value = <Tensor>]()
  %/transformer/pool/layers.1/attn/fn/Constant_24_output_0 = Constant[value = <Tensor>]()
  %/transformer/pool/layers.1/attn/fn/Concat_output_0 = Concat[axis = 0](%/transformer/pool/layers.1/attn/fn/Unsqueeze_4_output_0, %/transformer/pool/layers.1/attn/fn/Constant_22_output_0, %/transformer/pool/layers.1/attn/fn/Constant_23_output_0, %/transformer/pool/layers.1/attn/fn/Constant_24_output_0)
  %onnx::Unsqueeze_1250 = Constant[value = <Tensor>]()
  %/transformer/pool/layers.1/attn/fn/Unsqueeze_5_output_0 = Unsqueeze(%/transformer/pool/layers.1/attn/fn/Gather_output_0, %onnx::Unsqueeze_1250)
  %/transformer/pool/layers.1/attn/fn/Constant_25_output_0 = Constant[value = <Tensor>]()
  %/transformer/pool/layers.1/attn/fn/Constant_26_output_0 = Constant[value = <Tensor>]()
  %/transformer/pool/layers.1/attn/fn/Constant_27_output_0 = Constant[value = <Tensor>]()
  %/transformer/pool/layers.1/attn/fn/Concat_1_output_0 = Concat[axis = 0](%/transformer/pool/layers.1/attn/fn/Unsqueeze_5_output_0, %/transformer/pool/layers.1/attn/fn/Constant_25_output_0, %/transformer/pool/layers.1/attn/fn/Constant_26_output_0, %/transformer/pool/layers.1/attn/fn/Constant_27_output_0)
  %onnx::Unsqueeze_1259 = Constant[value = <Tensor>]()
  %/transformer/pool/layers.1/attn/fn/Unsqueeze_6_output_0 = Unsqueeze(%/transformer/pool/layers.1/attn/fn/Gather_output_0, %onnx::Unsqueeze_1259)
  %/transformer/pool/layers.1/attn/fn/Constant_28_output_0 = Constant[value = <Tensor>]()
  %/transformer/pool/layers.1/attn/fn/Constant_29_output_0 = Constant[value = <Tensor>]()
  %/transformer/pool/layers.1/attn/fn/Constant_30_output_0 = Constant[value = <Tensor>]()
  %/transformer/pool/layers.1/attn/fn/Concat_2_output_0 = Concat[axis = 0](%/transformer/pool/layers.1/attn/fn/Unsqueeze_6_output_0, %/transformer/pool/layers.1/attn/fn/Constant_28_output_0, %/transformer/pool/layers.1/attn/fn/Constant_29_output_0, %/transformer/pool/layers.1/attn/fn/Constant_30_output_0)
  %/transformer/pool/layers.1/attn/fn/Reshape_output_0 = Reshape[allowzero = 0](%/transformer/pool/layers.1/attn/fn/Add_4_output_0, %/transformer/pool/layers.1/attn/fn/Concat_output_0)
  %/transformer/pool/layers.1/attn/fn/Transpose_2_output_0 = Transpose[perm = [0, 2, 1, 3]](%/transformer/pool/layers.1/attn/fn/Reshape_output_0)
  %/transformer/pool/layers.1/attn/fn/Reshape_1_output_0 = Reshape[allowzero = 0](%/transformer/pool/layers.1/attn/fn/Slice_5_output_0, %/transformer/pool/layers.1/attn/fn/Concat_1_output_0)
  %/transformer/pool/layers.1/attn/fn/Reshape_2_output_0 = Reshape[allowzero = 0](%/transformer/pool/layers.1/attn/fn/Slice_6_output_0, %/transformer/pool/layers.1/attn/fn/Concat_2_output_0)
  %/transformer/pool/layers.1/attn/fn/Transpose_3_output_0 = Transpose[perm = [0, 2, 1, 3]](%/transformer/pool/layers.1/attn/fn/Reshape_2_output_0)
  %/transformer/pool/layers.1/attn/fn/Shape_3_output_0 = Shape(%/transformer/pool/layers.1/attn/fn/Transpose_2_output_0)
  %/transformer/pool/layers.1/attn/fn/Constant_31_output_0 = Constant[value = <Tensor>]()
  %/transformer/pool/layers.1/attn/fn/Constant_32_output_0 = Constant[value = <Tensor>]()
  %/transformer/pool/layers.1/attn/fn/Slice_7_output_0 = Slice(%/transformer/pool/layers.1/attn/fn/Shape_3_output_0, %/transformer/pool/layers.1/attn/fn/Constant_31_output_0, %/transformer/pool/layers.1/attn/fn/Constant_32_output_0)
  %/transformer/pool/layers.1/attn/fn/Cast_output_0 = Cast[to = 1](%/transformer/pool/layers.1/attn/fn/Slice_7_output_0)
  %/transformer/pool/layers.1/attn/fn/Sqrt_output_0 = Sqrt(%/transformer/pool/layers.1/attn/fn/Cast_output_0)
  %/transformer/pool/layers.1/attn/fn/Constant_33_output_0 = Constant[value = <Tensor>]()
  %/transformer/pool/layers.1/attn/fn/Div_1_output_0 = Div(%/transformer/pool/layers.1/attn/fn/Constant_33_output_0, %/transformer/pool/layers.1/attn/fn/Sqrt_output_0)
  %/transformer/pool/layers.1/attn/fn/Cast_1_output_0 = Cast[to = 1](%/transformer/pool/layers.1/attn/fn/Div_1_output_0)
  %/transformer/pool/layers.1/attn/fn/Transpose_4_output_0 = Transpose[perm = [0, 2, 3, 1]](%/transformer/pool/layers.1/attn/fn/Reshape_1_output_0)
  %/transformer/pool/layers.1/attn/fn/Sqrt_1_output_0 = Sqrt(%/transformer/pool/layers.1/attn/fn/Cast_1_output_0)
  %/transformer/pool/layers.1/attn/fn/Mul_3_output_0 = Mul(%/transformer/pool/layers.1/attn/fn/Transpose_2_output_0, %/transformer/pool/layers.1/attn/fn/Sqrt_1_output_0)
  %/transformer/pool/layers.1/attn/fn/Sqrt_2_output_0 = Sqrt(%/transformer/pool/layers.1/attn/fn/Cast_1_output_0)
  %/transformer/pool/layers.1/attn/fn/Mul_4_output_0 = Mul(%/transformer/pool/layers.1/attn/fn/Transpose_4_output_0, %/transformer/pool/layers.1/attn/fn/Sqrt_2_output_0)
  %/transformer/pool/layers.1/attn/fn/MatMul_2_output_0 = MatMul(%/transformer/pool/layers.1/attn/fn/Mul_3_output_0, %/transformer/pool/layers.1/attn/fn/Mul_4_output_0)
  %/transformer/pool/layers.1/attn/fn/Softmax_output_0 = Softmax[axis = -1](%/transformer/pool/layers.1/attn/fn/MatMul_2_output_0)
  %/transformer/pool/layers.1/attn/fn/MatMul_3_output_0 = MatMul(%/transformer/pool/layers.1/attn/fn/Softmax_output_0, %/transformer/pool/layers.1/attn/fn/Transpose_3_output_0)
  %/transformer/pool/layers.1/attn/fn/Transpose_5_output_0 = Transpose[perm = [0, 2, 1, 3]](%/transformer/pool/layers.1/attn/fn/MatMul_3_output_0)
  %onnx::Unsqueeze_1291 = Constant[value = <Tensor>]()
  %/transformer/pool/layers.1/attn/fn/Unsqueeze_7_output_0 = Unsqueeze(%/transformer/pool/layers.1/attn/fn/Gather_output_0, %onnx::Unsqueeze_1291)
  %/transformer/pool/layers.1/attn/fn/Constant_34_output_0 = Constant[value = <Tensor>]()
  %/transformer/pool/layers.1/attn/fn/Constant_35_output_0 = Constant[value = <Tensor>]()
  %/transformer/pool/layers.1/attn/fn/Concat_3_output_0 = Concat[axis = 0](%/transformer/pool/layers.1/attn/fn/Unsqueeze_7_output_0, %/transformer/pool/layers.1/attn/fn/Constant_34_output_0, %/transformer/pool/layers.1/attn/fn/Constant_35_output_0)
  %/transformer/pool/layers.1/attn/fn/Reshape_3_output_0 = Reshape[allowzero = 0](%/transformer/pool/layers.1/attn/fn/Transpose_5_output_0, %/transformer/pool/layers.1/attn/fn/Concat_3_output_0)
  %/transformer/pool/layers.1/attn/fn/attn_out/MatMul_output_0 = MatMul(%/transformer/pool/layers.1/attn/fn/Reshape_3_output_0, %onnx::MatMul_17378)
  %/transformer/pool/layers.1/attn/fn/attn_out/Add_output_0 = Add(%transformer.pool.layers.1.attn.fn.attn_out.bias, %/transformer/pool/layers.1/attn/fn/attn_out/MatMul_output_0)
  %/transformer/pool/layers.1/attn/Add_output_0 = Add(%/transformer/pool/layers.1/attn/fn/attn_out/Add_output_0, %/transformer/pool/layers.0/ff/Add_output_0)
  %/transformer/pool/layers.1/ff/fn/lin1/MatMul_output_0 = MatMul(%/transformer/pool/layers.1/attn/Add_output_0, %onnx::MatMul_17379)
  %/transformer/pool/layers.1/ff/fn/lin1/Add_output_0 = Add(%transformer.pool.layers.1.ff.fn.lin1.bias, %/transformer/pool/layers.1/ff/fn/lin1/MatMul_output_0)
  %/transformer/pool/layers.1/ff/fn/Shape_output_0 = Shape(%/transformer/pool/layers.1/ff/fn/lin1/Add_output_0)
  %/transformer/pool/layers.1/ff/fn/Constant_output_0 = Constant[value = <Tensor>]()
  %/transformer/pool/layers.1/ff/fn/Gather_output_0 = Gather[axis = 0](%/transformer/pool/layers.1/ff/fn/Shape_output_0, %/transformer/pool/layers.1/ff/fn/Constant_output_0)
  %/transformer/pool/layers.1/ff/fn/Constant_1_output_0 = Constant[value = <Tensor>]()
  %/transformer/pool/layers.1/ff/fn/Constant_2_output_0 = Constant[value = <Tensor>]()
  %/transformer/pool/layers.1/ff/fn/Add_output_0 = Add(%/transformer/pool/layers.1/ff/fn/Gather_output_0, %/transformer/pool/layers.1/ff/fn/Constant_2_output_0)
  %/transformer/pool/layers.1/ff/fn/Constant_3_output_0 = Constant[value = <Tensor>]()
  %/transformer/pool/layers.1/ff/fn/Div_output_0 = Div(%/transformer/pool/layers.1/ff/fn/Add_output_0, %/transformer/pool/layers.1/ff/fn/Constant_3_output_0)
  %/transformer/pool/layers.1/ff/fn/Constant_4_output_0 = Constant[value = <Tensor>]()
  %/transformer/pool/layers.1/ff/fn/Mul_output_0 = Mul(%/transformer/pool/layers.1/ff/fn/Div_output_0, %/transformer/pool/layers.1/ff/fn/Constant_4_output_0)
  %/transformer/pool/layers.1/ff/fn/Slice_output_0 = Slice(%/transformer/pool/layers.1/ff/fn/lin1/Add_output_0, %/transformer/pool/layers.1/ff/fn/Constant_1_output_0, %/transformer/pool/layers.1/ff/fn/Mul_output_0, %/transformer/pool/layers.1/ff/fn/Constant_output_0)
  %/transformer/pool/layers.1/ff/fn/Constant_5_output_0 = Constant[value = <Tensor>]()
  %/transformer/pool/layers.1/ff/fn/Mul_1_output_0 = Mul(%/transformer/pool/layers.1/ff/fn/Div_output_0, %/transformer/pool/layers.1/ff/fn/Constant_5_output_0)
  %/transformer/pool/layers.1/ff/fn/Slice_1_output_0 = Slice(%/transformer/pool/layers.1/ff/fn/lin1/Add_output_0, %/transformer/pool/layers.1/ff/fn/Mul_output_0, %/transformer/pool/layers.1/ff/fn/Mul_1_output_0, %/transformer/pool/layers.1/ff/fn/Constant_output_0)
  %/transformer/pool/layers.1/ff/fn/Sigmoid_output_0 = Sigmoid(%/transformer/pool/layers.1/ff/fn/Slice_output_0)
  %/transformer/pool/layers.1/ff/fn/Mul_2_output_0 = Mul(%/transformer/pool/layers.1/ff/fn/Slice_output_0, %/transformer/pool/layers.1/ff/fn/Sigmoid_output_0)
  %/transformer/pool/layers.1/ff/fn/Mul_3_output_0 = Mul(%/transformer/pool/layers.1/ff/fn/Mul_2_output_0, %/transformer/pool/layers.1/ff/fn/Slice_1_output_0)
  %/transformer/pool/layers.1/ff/fn/lin2/MatMul_output_0 = MatMul(%/transformer/pool/layers.1/ff/fn/Mul_3_output_0, %onnx::MatMul_17380)
  %/transformer/pool/layers.1/ff/fn/lin2/Add_output_0 = Add(%transformer.pool.layers.1.ff.fn.lin2.bias, %/transformer/pool/layers.1/ff/fn/lin2/MatMul_output_0)
  %/transformer/pool/layers.1/ff/Add_output_0 = Add(%/transformer/pool/layers.1/ff/fn/lin2/Add_output_0, %/transformer/pool/layers.1/attn/Add_output_0)
  %/transformer/pool/Constant_6_output_0 = Constant[value = <Tensor>]()
  %/transformer/pool/Shape_2_output_0 = Shape(%/transformer/pool/layers.1/ff/Add_output_0)
  %/transformer/pool/Gather_1_output_0 = Gather[axis = 0](%/transformer/pool/Shape_2_output_0, %/transformer/pool/Constant_6_output_0)
  %/transformer/pool/Constant_7_output_0 = Constant[value = <Tensor>]()
  %/transformer/pool/Equal_1_output_0 = Equal(%/transformer/pool/Gather_1_output_0, %/transformer/pool/Constant_7_output_0)
  %/transformer/pool/If_output_0 = If[else_branch = <graph sub_graph3>, then_branch = <graph sub_graph2>](%/transformer/pool/Equal_1_output_0)
  %/transformer/pool/final_norm/ReduceMean_output_0 = ReduceMean[axes = [-1]](%/transformer/pool/If_output_0)
  %/transformer/pool/final_norm/Sub_output_0 = Sub(%/transformer/pool/If_output_0, %/transformer/pool/final_norm/ReduceMean_output_0)
  %/transformer/pool/final_norm/Constant_output_0 = Constant[value = <Scalar Tensor []>]()
  %/transformer/pool/final_norm/Pow_output_0 = Pow(%/transformer/pool/final_norm/Sub_output_0, %/transformer/pool/final_norm/Constant_output_0)
  %/transformer/pool/final_norm/ReduceMean_1_output_0 = ReduceMean[axes = [-1]](%/transformer/pool/final_norm/Pow_output_0)
  %/transformer/pool/final_norm/Constant_1_output_0 = Constant[value = <Scalar Tensor []>]()
  %/transformer/pool/final_norm/Add_output_0 = Add(%/transformer/pool/final_norm/ReduceMean_1_output_0, %/transformer/pool/final_norm/Constant_1_output_0)
  %/transformer/pool/final_norm/Sqrt_output_0 = Sqrt(%/transformer/pool/final_norm/Add_output_0)
  %/transformer/pool/final_norm/Div_output_0 = Div(%/transformer/pool/final_norm/Sub_output_0, %/transformer/pool/final_norm/Sqrt_output_0)
  %/transformer/pool/final_norm/Mul_output_0 = Mul(%/transformer/pool/final_norm/Div_output_0, %transformer.pool.final_norm.weight)
  %/transformer/pool/final_norm/Add_1_output_0 = Add(%/transformer/pool/final_norm/Mul_output_0, %transformer.pool.final_norm.bias)
…
  %/flows.9/ConstantOfShape_45_output_0 = ConstantOfShape[value = <Tensor>](%/flows.9/Shape_98_output_0)
  %/flows.9/Constant_308_output_0 = Constant[value = <Scalar Tensor []>]()
  %/flows.9/Mul_51_output_0 = Mul(%/flows.9/ConstantOfShape_45_output_0, %/flows.9/Constant_308_output_0)
  %/flows.9/Equal_27_output_0 = Equal(%/flows.9/Shape_97_output_0, %/flows.9/Mul_51_output_0)
  %/flows.9/Where_28_output_0 = Where(%/flows.9/Equal_27_output_0, %/flows.9/ConstantOfShape_45_output_0, %/flows.9/Shape_97_output_0)
  %/flows.9/Expand_41_output_0 = Expand(%/flows.9/Reshape_41_output_0, %/flows.9/Where_28_output_0)
  %/flows.9/Constant_309_output_0 = Constant[value = <Tensor>]()
  %/flows.9/Unsqueeze_34_output_0 = Unsqueeze(%/flows.9/Expand_41_output_0, %/flows.9/Constant_309_output_0)
  %/flows.9/Shape_99_output_0 = Shape(%/flows.9/Shape_97_output_0)
  %/flows.9/ConstantOfShape_46_output_0 = ConstantOfShape[value = <Tensor>](%/flows.9/Shape_99_output_0)
  %/flows.9/Constant_310_output_0 = Constant[value = <Scalar Tensor []>]()
  %/flows.9/Mul_52_output_0 = Mul(%/flows.9/ConstantOfShape_46_output_0, %/flows.9/Constant_310_output_0)
  %/flows.9/Equal_28_output_0 = Equal(%/flows.9/Shape_97_output_0, %/flows.9/Mul_52_output_0)
  %/flows.9/Where_29_output_0 = Where(%/flows.9/Equal_28_output_0, %/flows.9/ConstantOfShape_46_output_0, %/flows.9/Shape_97_output_0)
  %/flows.9/Expand_42_output_0 = Expand(%/flows.9/Constant_305_output_0, %/flows.9/Where_29_output_0)
  %/flows.9/Constant_311_output_0 = Constant[value = <Tensor>]()
  %/flows.9/Unsqueeze_35_output_0 = Unsqueeze(%/flows.9/Expand_42_output_0, %/flows.9/Constant_311_output_0)
  %/flows.9/Concat_29_output_0 = Concat[axis = -1](%/flows.9/Unsqueeze_34_output_0, %/flows.9/Unsqueeze_35_output_0)
  %/flows.9/Shape_100_output_0 = Shape(%/flows.9/Add_27_output_0)
  %/flows.9/Constant_312_output_0 = Constant[value = <Tensor>]()
  %/flows.9/Constant_313_output_0 = Constant[value = <Tensor>]()
  %/flows.9/Constant_314_output_0 = Constant[value = <Tensor>]()
  %/flows.9/Slice_26_output_0 = Slice(%/flows.9/Shape_100_output_0, %/flows.9/Constant_313_output_0, %/flows.9/Constant_314_output_0, %/flows.9/Constant_312_output_0)
  %/flows.9/Concat_30_output_0 = Concat[axis = 0](%/flows.9/Shape_97_output_0, %/flows.9/Slice_26_output_0)
  %/flows.9/Reshape_42_output_0 = Reshape[allowzero = 0](%/flows.9/Expand_40_output_0, %/flows.9/Concat_30_output_0)
  %/flows.9/ScatterND_13_output_0 = ScatterND(%/flows.9/Add_27_output_0, %/flows.9/Concat_29_output_0, %/flows.9/Reshape_42_output_0)
  %/flows.9/Gather_43_output_0 = Gather[axis = 1](%/flows.9/ScatterND_13_output_0, %/transformer/encoder/Constant_2_output_0)
  %/flows.9/Shape_101_output_0 = Shape(%/flows.9/Gather_43_output_0)
  %/flows.9/ConstantOfShape_47_output_0 = ConstantOfShape[value = <Tensor>](%/flows.9/Shape_101_output_0)
  %/flows.9/Shape_102_output_0 = Shape(%/flows.9/Gather_43_output_0)
  %/flows.9/Expand_43_output_0 = Expand(%/flows.9/ConstantOfShape_47_output_0, %/flows.9/Shape_102_output_0)
  %/flows.9/Shape_103_output_0 = Shape(%/flows.9/ScatterND_13_output_0)
  %/flows.9/Constant_315_output_0 = Constant[value = <Scalar Tensor []>]()
  %/flows.9/Gather_44_output_0 = Gather[axis = 0](%/flows.9/Shape_103_output_0, %/flows.9/Constant_315_output_0)
  %/flows.9/Cast_24_output_0 = Cast[to = 7](%/flows.9/Gather_44_output_0)
  %/flows.9/Constant_316_output_0 = Constant[value = <Scalar Tensor []>]()
  %/flows.9/Constant_317_output_0 = Constant[value = <Scalar Tensor []>]()
  %/flows.9/Range_15_output_0 = Range(%/flows.9/Constant_316_output_0, %/flows.9/Cast_24_output_0, %/flows.9/Constant_317_output_0)
  %/flows.9/Constant_318_output_0 = Constant[value = <Tensor>]()
  %/flows.9/Constant_319_output_0 = Constant[value = <Tensor>]()
  %/flows.9/Reshape_43_output_0 = Reshape[allowzero = 0](%/flows.9/Range_15_output_0, %/flows.9/Constant_319_output_0)
  %/flows.9/Constant_320_output_0 = Constant[value = <Tensor>]()
  %/flows.9/Add_29_output_0 = Add(%/flows.9/Reshape_43_output_0, %/flows.9/Constant_320_output_0)
  %/flows.9/Shape_104_output_0 = Shape(%/flows.9/Add_29_output_0)
  %/flows.9/Shape_105_output_0 = Shape(%/flows.9/Shape_104_output_0)
  %/flows.9/ConstantOfShape_48_output_0 = ConstantOfShape[value = <Tensor>](%/flows.9/Shape_105_output_0)
  %/flows.9/Constant_321_output_0 = Constant[value = <Scalar Tensor []>]()
  %/flows.9/Mul_53_output_0 = Mul(%/flows.9/ConstantOfShape_48_output_0, %/flows.9/Constant_321_output_0)
  %/flows.9/Equal_29_output_0 = Equal(%/flows.9/Shape_104_output_0, %/flows.9/Mul_53_output_0)
  %/flows.9/Where_30_output_0 = Where(%/flows.9/Equal_29_output_0, %/flows.9/ConstantOfShape_48_output_0, %/flows.9/Shape_104_output_0)
  %/flows.9/Expand_44_output_0 = Expand(%/flows.9/Reshape_43_output_0, %/flows.9/Where_30_output_0)
  %/flows.9/Constant_322_output_0 = Constant[value = <Tensor>]()
  %/flows.9/Unsqueeze_36_output_0 = Unsqueeze(%/flows.9/Expand_44_output_0, %/flows.9/Constant_322_output_0)
  %/flows.9/Shape_106_output_0 = Shape(%/flows.9/Shape_104_output_0)
  %/flows.9/ConstantOfShape_49_output_0 = ConstantOfShape[value = <Tensor>](%/flows.9/Shape_106_output_0)
  %/flows.9/Constant_323_output_0 = Constant[value = <Scalar Tensor []>]()
  %/flows.9/Mul_54_output_0 = Mul(%/flows.9/ConstantOfShape_49_output_0, %/flows.9/Constant_323_output_0)
  %/flows.9/Equal_30_output_0 = Equal(%/flows.9/Shape_104_output_0, %/flows.9/Mul_54_output_0)
  %/flows.9/Where_31_output_0 = Where(%/flows.9/Equal_30_output_0, %/flows.9/ConstantOfShape_49_output_0, %/flows.9/Shape_104_output_0)
  %/flows.9/Expand_45_output_0 = Expand(%/flows.9/Constant_318_output_0, %/flows.9/Where_31_output_0)
  %/flows.9/Constant_324_output_0 = Constant[value = <Tensor>]()
  %/flows.9/Unsqueeze_37_output_0 = Unsqueeze(%/flows.9/Expand_45_output_0, %/flows.9/Constant_324_output_0)
  %/flows.9/Concat_31_output_0 = Concat[axis = -1](%/flows.9/Unsqueeze_36_output_0, %/flows.9/Unsqueeze_37_output_0)
  %/flows.9/Shape_107_output_0 = Shape(%/flows.9/ScatterND_13_output_0)
  %/flows.9/Constant_325_output_0 = Constant[value = <Tensor>]()
  %/flows.9/Constant_326_output_0 = Constant[value = <Tensor>]()
  %/flows.9/Constant_327_output_0 = Constant[value = <Tensor>]()
  %/flows.9/Slice_27_output_0 = Slice(%/flows.9/Shape_107_output_0, %/flows.9/Constant_326_output_0, %/flows.9/Constant_327_output_0, %/flows.9/Constant_325_output_0)
  %/flows.9/Concat_32_output_0 = Concat[axis = 0](%/flows.9/Shape_104_output_0, %/flows.9/Slice_27_output_0)
  %/flows.9/Reshape_44_output_0 = Reshape[allowzero = 0](%/flows.9/Expand_43_output_0, %/flows.9/Concat_32_output_0)
  %/flows.9/ScatterND_14_output_0 = ScatterND(%/flows.9/ScatterND_13_output_0, %/flows.9/Concat_31_output_0, %/flows.9/Reshape_44_output_0)
  %/flows.9/Constant_328_output_0 = Constant[value = <Tensor>]()
  %/flows.9/Constant_329_output_0 = Constant[value = <Tensor>]()
  %/flows.9/Constant_330_output_0 = Constant[value = <Tensor>]()
  %/flows.9/Constant_331_output_0 = Constant[value = <Tensor>]()
  %/flows.9/Slice_28_output_0 = Slice(%/flows.9/ScatterND_14_output_0, %/flows.9/Constant_329_output_0, %/flows.9/Constant_330_output_0, %/flows.9/Constant_328_output_0, %/flows.9/Constant_331_output_0)
  %/flows.9/Constant_332_output_0 = Constant[value = <Tensor>]()
  %/flows.9/Constant_333_output_0 = Constant[value = <Tensor>]()
  %/flows.9/Constant_334_output_0 = Constant[value = <Tensor>]()
  %/flows.9/Constant_335_output_0 = Constant[value = <Tensor>]()
  %/flows.9/Slice_29_output_0 = Slice(%/flows.9/ScatterND_14_output_0, %/flows.9/Constant_333_output_0, %/flows.9/Constant_334_output_0, %/flows.9/Constant_332_output_0, %/flows.9/Constant_335_output_0)
  %/flows.9/Sub_13_output_0 = Sub(%/flows.9/Slice_28_output_0, %/flows.9/Slice_29_output_0)
  %/flows.9/Softplus_1_output_0 = Softplus(%/flows.9/GatherND_9_output_0)
  %/flows.9/Constant_336_output_0 = Constant[value = <Scalar Tensor []>]()
  %/flows.9/Add_30_output_0 = Add(%/flows.9/Softplus_1_output_0, %/flows.9/Constant_336_output_0)
  %/flows.9/Softmax_3_output_0 = Softmax[axis = -1](%/flows.9/GatherND_8_output_0)
  %/flows.9/Mul_55_output_0 = Mul(%/flows.9/Sub_12_output_0, %/flows.9/Softmax_3_output_0)
  %/flows.9/Constant_337_output_0 = Constant[value = <Scalar Tensor []>]()
  %/flows.9/Add_31_output_0 = Add(%/flows.9/Mul_55_output_0, %/flows.9/Constant_337_output_0)
  %/flows.9/Constant_338_output_0 = Constant[value = <Scalar Tensor []>]()
  %/flows.9/CumSum_3_output_0 = CumSum(%/flows.9/Add_31_output_0, %/flows.9/Constant_338_output_0)
  %/flows.9/Constant_339_output_0 = Constant[value = <Tensor>]()
  %/flows.9/Constant_340_output_0 = Constant[value = <Tensor>]()
  %/flows.9/ConstantOfShape_50_output_0 = ConstantOfShape[value = <Tensor>](%/flows.9/Constant_339_output_0)
  %/flows.9/Concat_33_output_0 = Concat[axis = 0](%/flows.9/Constant_340_output_0, %/flows.9/ConstantOfShape_50_output_0)
  %/flows.9/Constant_341_output_0 = Constant[value = <Tensor>]()
  %/flows.9/Reshape_45_output_0 = Reshape[allowzero = 0](%/flows.9/Concat_33_output_0, %/flows.9/Constant_341_output_0)
  %/flows.9/Constant_342_output_0 = Constant[value = <Tensor>]()
  %/flows.9/Constant_343_output_0 = Constant[value = <Tensor>]()
  %/flows.9/Constant_344_output_0 = Constant[value = <Tensor>]()
  %/flows.9/Constant_345_output_0 = Constant[value = <Tensor>]()
  %/flows.9/Slice_30_output_0 = Slice(%/flows.9/Reshape_45_output_0, %/flows.9/Constant_343_output_0, %/flows.9/Constant_344_output_0, %/flows.9/Constant_342_output_0, %/flows.9/Constant_345_output_0)
  %/flows.9/Transpose_18_output_0 = Transpose[perm = [1, 0]](%/flows.9/Slice_30_output_0)
  %/flows.9/Constant_346_output_0 = Constant[value = <Tensor>]()
  %/flows.9/Reshape_46_output_0 = Reshape[allowzero = 0](%/flows.9/Transpose_18_output_0, %/flows.9/Constant_346_output_0)
  %/flows.9/Cast_25_output_0 = Cast[to = 7](%/flows.9/Reshape_46_output_0)
  %/flows.9/Constant_347_output_0 = Constant[value = <Scalar Tensor []>]()
  %/flows.9/Pad_5_output_0 = Pad[mode = 'constant'](%/flows.9/CumSum_3_output_0, %/flows.9/Cast_25_output_0, %/flows.9/Constant_347_output_0)
  %/flows.9/Constant_348_output_0 = Constant[value = <Scalar Tensor []>]()
  %/flows.9/Mul_56_output_0 = Mul(%/flows.9/Pad_5_output_0, %/flows.9/Constant_348_output_0)
  %/flows.9/Constant_349_output_0 = Constant[value = <Scalar Tensor []>]()
  %/flows.9/Add_32_output_0 = Add(%/flows.9/Mul_56_output_0, %/flows.9/Constant_349_output_0)
  %/flows.9/Gather_45_output_0 = Gather[axis = 1](%/flows.9/Add_32_output_0, %/Constant_output_0)
  %/flows.9/Shape_108_output_0 = Shape(%/flows.9/Gather_45_output_0)
  %/flows.9/ConstantOfShape_51_output_0 = ConstantOfShape[value = <Tensor>](%/flows.9/Shape_108_output_0)
  %/flows.9/Shape_109_output_0 = Shape(%/flows.9/Gather_45_output_0)
  %/flows.9/Expand_46_output_0 = Expand(%/flows.9/ConstantOfShape_51_output_0, %/flows.9/Shape_109_output_0)
  %/flows.9/Shape_110_output_0 = Shape(%/flows.9/Add_32_output_0)
  %/flows.9/Constant_350_output_0 = Constant[value = <Scalar Tensor []>]()
  %/flows.9/Gather_46_output_0 = Gather[axis = 0](%/flows.9/Shape_110_output_0, %/flows.9/Constant_350_output_0)
  %/flows.9/Cast_26_output_0 = Cast[to = 7](%/flows.9/Gather_46_output_0)
  %/flows.9/Constant_351_output_0 = Constant[value = <Scalar Tensor []>]()
  %/flows.9/Constant_352_output_0 = Constant[value = <Scalar Tensor []>]()
  %/flows.9/Range_16_output_0 = Range(%/flows.9/Constant_351_output_0, %/flows.9/Cast_26_output_0, %/flows.9/Constant_352_output_0)
  %/flows.9/Constant_353_output_0 = Constant[value = <Tensor>]()
  %/flows.9/Constant_354_output_0 = Constant[value = <Tensor>]()
  %/flows.9/Reshape_47_output_0 = Reshape[allowzero = 0](%/flows.9/Range_16_output_0, %/flows.9/Constant_354_output_0)
  %/flows.9/Constant_355_output_0 = Constant[value = <Tensor>]()
  %/flows.9/Add_33_output_0 = Add(%/flows.9/Reshape_47_output_0, %/flows.9/Constant_355_output_0)
  %/flows.9/Shape_111_output_0 = Shape(%/flows.9/Add_33_output_0)
  %/flows.9/Shape_112_output_0 = Shape(%/flows.9/Shape_111_output_0)
  %/flows.9/ConstantOfShape_52_output_0 = ConstantOfShape[value = <Tensor>](%/flows.9/Shape_112_output_0)
  %/flows.9/Constant_356_output_0 = Constant[value = <Scalar Tensor []>]()
  %/flows.9/Mul_57_output_0 = Mul(%/flows.9/ConstantOfShape_52_output_0, %/flows.9/Constant_356_output_0)
  %/flows.9/Equal_31_output_0 = Equal(%/flows.9/Shape_111_output_0, %/flows.9/Mul_57_output_0)
  %/flows.9/Where_32_output_0 = Where(%/flows.9/Equal_31_output_0, %/flows.9/ConstantOfShape_52_output_0, %/flows.9/Shape_111_output_0)
  %/flows.9/Expand_47_output_0 = Expand(%/flows.9/Reshape_47_output_0, %/flows.9/Where_32_output_0)
  %/flows.9/Constant_357_output_0 = Constant[value = <Tensor>]()
  %/flows.9/Unsqueeze_38_output_0 = Unsqueeze(%/flows.9/Expand_47_output_0, %/flows.9/Constant_357_output_0)
  %/flows.9/Shape_113_output_0 = Shape(%/flows.9/Shape_111_output_0)
  %/flows.9/ConstantOfShape_53_output_0 = ConstantOfShape[value = <Tensor>](%/flows.9/Shape_113_output_0)
  %/flows.9/Constant_358_output_0 = Constant[value = <Scalar Tensor []>]()
  %/flows.9/Mul_58_output_0 = Mul(%/flows.9/ConstantOfShape_53_output_0, %/flows.9/Constant_358_output_0)
  %/flows.9/Equal_32_output_0 = Equal(%/flows.9/Shape_111_output_0, %/flows.9/Mul_58_output_0)
  %/flows.9/Where_33_output_0 = Where(%/flows.9/Equal_32_output_0, %/flows.9/ConstantOfShape_53_output_0, %/flows.9/Shape_111_output_0)
  %/flows.9/Expand_48_output_0 = Expand(%/flows.9/Constant_353_output_0, %/flows.9/Where_33_output_0)
  %/flows.9/Constant_359_output_0 = Constant[value = <Tensor>]()
  %/flows.9/Unsqueeze_39_output_0 = Unsqueeze(%/flows.9/Expand_48_output_0, %/flows.9/Constant_359_output_0)
  %/flows.9/Concat_34_output_0 = Concat[axis = -1](%/flows.9/Unsqueeze_38_output_0, %/flows.9/Unsqueeze_39_output_0)
  %/flows.9/Shape_114_output_0 = Shape(%/flows.9/Add_32_output_0)
  %/flows.9/Constant_360_output_0 = Constant[value = <Tensor>]()
  %/flows.9/Constant_361_output_0 = Constant[value = <Tensor>]()
  %/flows.9/Constant_362_output_0 = Constant[value = <Tensor>]()
  %/flows.9/Slice_31_output_0 = Slice(%/flows.9/Shape_114_output_0, %/flows.9/Constant_361_output_0, %/flows.9/Constant_362_output_0, %/flows.9/Constant_360_output_0)
  %/flows.9/Concat_35_output_0 = Concat[axis = 0](%/flows.9/Shape_111_output_0, %/flows.9/Slice_31_output_0)
  %/flows.9/Reshape_48_output_0 = Reshape[allowzero = 0](%/flows.9/Expand_46_output_0, %/flows.9/Concat_35_output_0)
  %/flows.9/ScatterND_15_output_0 = ScatterND(%/flows.9/Add_32_output_0, %/flows.9/Concat_34_output_0, %/flows.9/Reshape_48_output_0)
  %/flows.9/Gather_47_output_0 = Gather[axis = 1](%/flows.9/ScatterND_15_output_0, %/transformer/encoder/Constant_2_output_0)
  %/flows.9/Shape_115_output_0 = Shape(%/flows.9/Gather_47_output_0)
  %/flows.9/ConstantOfShape_54_output_0 = ConstantOfShape[value = <Tensor>](%/flows.9/Shape_115_output_0)
  %/flows.9/Shape_116_output_0 = Shape(%/flows.9/Gather_47_output_0)
  %/flows.9/Expand_49_output_0 = Expand(%/flows.9/ConstantOfShape_54_output_0, %/flows.9/Shape_116_output_0)
  %/flows.9/Shape_117_output_0 = Shape(%/flows.9/ScatterND_15_output_0)
  %/flows.9/Constant_363_output_0 = Constant[value = <Scalar Tensor []>]()
  %/flows.9/Gather_48_output_0 = Gather[axis = 0](%/flows.9/Shape_117_output_0, %/flows.9/Constant_363_output_0)
  %/flows.9/Cast_27_output_0 = Cast[to = 7](%/flows.9/Gather_48_output_0)
  %/flows.9/Constant_364_output_0 = Constant[value = <Scalar Tensor []>]()
  %/flows.9/Constant_365_output_0 = Constant[value = <Scalar Tensor []>]()
  %/flows.9/Range_17_output_0 = Range(%/flows.9/Constant_364_output_0, %/flows.9/Cast_27_output_0, %/flows.9/Constant_365_output_0)
  %/flows.9/Constant_366_output_0 = Constant[value = <Tensor>]()
  %/flows.9/Constant_367_output_0 = Constant[value = <Tensor>]()
  %/flows.9/Reshape_49_output_0 = Reshape[allowzero = 0](%/flows.9/Range_17_output_0, %/flows.9/Constant_367_output_0)
  %/flows.9/Constant_368_output_0 = Constant[value = <Tensor>]()
  %/flows.9/Add_34_output_0 = Add(%/flows.9/Reshape_49_output_0, %/flows.9/Constant_368_output_0)
  %/flows.9/Shape_118_output_0 = Shape(%/flows.9/Add_34_output_0)
  %/flows.9/Shape_119_output_0 = Shape(%/flows.9/Shape_118_output_0)
  %/flows.9/ConstantOfShape_55_output_0 = ConstantOfShape[value = <Tensor>](%/flows.9/Shape_119_output_0)
  %/flows.9/Constant_369_output_0 = Constant[value = <Scalar Tensor []>]()
  %/flows.9/Mul_59_output_0 = Mul(%/flows.9/ConstantOfShape_55_output_0, %/flows.9/Constant_369_output_0)
  %/flows.9/Equal_33_output_0 = Equal(%/flows.9/Shape_118_output_0, %/flows.9/Mul_59_output_0)
  %/flows.9/Where_34_output_0 = Where(%/flows.9/Equal_33_output_0, %/flows.9/ConstantOfShape_55_output_0, %/flows.9/Shape_118_output_0)
  %/flows.9/Expand_50_output_0 = Expand(%/flows.9/Reshape_49_output_0, %/flows.9/Where_34_output_0)
  %/flows.9/Constant_370_output_0 = Constant[value = <Tensor>]()
  %/flows.9/Unsqueeze_40_output_0 = Unsqueeze(%/flows.9/Expand_50_output_0, %/flows.9/Constant_370_output_0)
  %/flows.9/Shape_120_output_0 = Shape(%/flows.9/Shape_118_output_0)
  %/flows.9/ConstantOfShape_56_output_0 = ConstantOfShape[value = <Tensor>](%/flows.9/Shape_120_output_0)
  %/flows.9/Constant_371_output_0 = Constant[value = <Scalar Tensor []>]()
  %/flows.9/Mul_60_output_0 = Mul(%/flows.9/ConstantOfShape_56_output_0, %/flows.9/Constant_371_output_0)
  %/flows.9/Equal_34_output_0 = Equal(%/flows.9/Shape_118_output_0, %/flows.9/Mul_60_output_0)
  %/flows.9/Where_35_output_0 = Where(%/flows.9/Equal_34_output_0, %/flows.9/ConstantOfShape_56_output_0, %/flows.9/Shape_118_output_0)
  %/flows.9/Expand_51_output_0 = Expand(%/flows.9/Constant_366_output_0, %/flows.9/Where_35_output_0)
  %/flows.9/Constant_372_output_0 = Constant[value = <Tensor>]()
  %/flows.9/Unsqueeze_41_output_0 = Unsqueeze(%/flows.9/Expand_51_output_0, %/flows.9/Constant_372_output_0)
  %/flows.9/Concat_36_output_0 = Concat[axis = -1](%/flows.9/Unsqueeze_40_output_0, %/flows.9/Unsqueeze_41_output_0)
  %/flows.9/Shape_121_output_0 = Shape(%/flows.9/ScatterND_15_output_0)
  %/flows.9/Constant_373_output_0 = Constant[value = <Tensor>]()
  %/flows.9/Constant_374_output_0 = Constant[value = <Tensor>]()
  %/flows.9/Constant_375_output_0 = Constant[value = <Tensor>]()
  %/flows.9/Slice_32_output_0 = Slice(%/flows.9/Shape_121_output_0, %/flows.9/Constant_374_output_0, %/flows.9/Constant_375_output_0, %/flows.9/Constant_373_output_0)
  %/flows.9/Concat_37_output_0 = Concat[axis = 0](%/flows.9/Shape_118_output_0, %/flows.9/Slice_32_output_0)
  %/flows.9/Reshape_50_output_0 = Reshape[allowzero = 0](%/flows.9/Expand_49_output_0, %/flows.9/Concat_37_output_0)
  %/flows.9/ScatterND_16_output_0 = ScatterND(%/flows.9/ScatterND_15_output_0, %/flows.9/Concat_36_output_0, %/flows.9/Reshape_50_output_0)
  %/flows.9/Constant_376_output_0 = Constant[value = <Tensor>]()
  %/flows.9/Constant_377_output_0 = Constant[value = <Tensor>]()
  %/flows.9/Constant_378_output_0 = Constant[value = <Tensor>]()
  %/flows.9/Constant_379_output_0 = Constant[value = <Tensor>]()
  %/flows.9/Slice_33_output_0 = Slice(%/flows.9/ScatterND_16_output_0, %/flows.9/Constant_377_output_0, %/flows.9/Constant_378_output_0, %/flows.9/Constant_376_output_0, %/flows.9/Constant_379_output_0)
  %/flows.9/Constant_380_output_0 = Constant[value = <Tensor>]()
  %/flows.9/Constant_381_output_0 = Constant[value = <Tensor>]()
  %/flows.9/Constant_382_output_0 = Constant[value = <Tensor>]()
  %/flows.9/Constant_383_output_0 = Constant[value = <Tensor>]()
  %/flows.9/Slice_34_output_0 = Slice(%/flows.9/ScatterND_16_output_0, %/flows.9/Constant_381_output_0, %/flows.9/Constant_382_output_0, %/flows.9/Constant_380_output_0, %/flows.9/Constant_383_output_0)
  %/flows.9/Sub_14_output_0 = Sub(%/flows.9/Slice_33_output_0, %/flows.9/Slice_34_output_0)
  %/flows.9/Gather_49_output_0 = Gather[axis = 1](%/flows.9/ScatterND_16_output_0, %/transformer/encoder/Constant_2_output_0)
  %/flows.9/Constant_384_output_0 = Constant[value = <Scalar Tensor []>]()
  %/flows.9/Add_35_output_0 = Add(%/flows.9/Gather_49_output_0, %/flows.9/Constant_384_output_0)
  %/flows.9/Shape_122_output_0 = Shape(%/flows.9/Gather_49_output_0)
  %/flows.9/Expand_52_output_0 = Expand(%/flows.9/Add_35_output_0, %/flows.9/Shape_122_output_0)
  %/flows.9/Shape_123_output_0 = Shape(%/flows.9/ScatterND_16_output_0)
  %/flows.9/Constant_385_output_0 = Constant[value = <Scalar Tensor []>]()
  %/flows.9/Gather_50_output_0 = Gather[axis = 0](%/flows.9/Shape_123_output_0, %/flows.9/Constant_385_output_0)
  %/flows.9/Cast_28_output_0 = Cast[to = 7](%/flows.9/Gather_50_output_0)
  %/flows.9/Constant_386_output_0 = Constant[value = <Scalar Tensor []>]()
  %/flows.9/Constant_387_output_0 = Constant[value = <Scalar Tensor []>]()
  %/flows.9/Range_18_output_0 = Range(%/flows.9/Constant_386_output_0, %/flows.9/Cast_28_output_0, %/flows.9/Constant_387_output_0)
  %/flows.9/Constant_388_output_0 = Constant[value = <Tensor>]()
  %/flows.9/Constant_389_output_0 = Constant[value = <Tensor>]()
  %/flows.9/Reshape_51_output_0 = Reshape[allowzero = 0](%/flows.9/Range_18_output_0, %/flows.9/Constant_389_output_0)
  %/flows.9/Constant_390_output_0 = Constant[value = <Tensor>]()
  %/flows.9/Add_36_output_0 = Add(%/flows.9/Reshape_51_output_0, %/flows.9/Constant_390_output_0)
  %/flows.9/Shape_124_output_0 = Shape(%/flows.9/Add_36_output_0)
  %/flows.9/Shape_125_output_0 = Shape(%/flows.9/Shape_124_output_0)
  %/flows.9/ConstantOfShape_57_output_0 = ConstantOfShape[value = <Tensor>](%/flows.9/Shape_125_output_0)
  %/flows.9/Constant_391_output_0 = Constant[value = <Scalar Tensor []>]()
  %/flows.9/Mul_61_output_0 = Mul(%/flows.9/ConstantOfShape_57_output_0, %/flows.9/Constant_391_output_0)
  %/flows.9/Equal_35_output_0 = Equal(%/flows.9/Shape_124_output_0, %/flows.9/Mul_61_output_0)
  %/flows.9/Where_36_output_0 = Where(%/flows.9/Equal_35_output_0, %/flows.9/ConstantOfShape_57_output_0, %/flows.9/Shape_124_output_0)
  %/flows.9/Expand_53_output_0 = Expand(%/flows.9/Reshape_51_output_0, %/flows.9/Where_36_output_0)
  %/flows.9/Constant_392_output_0 = Constant[value = <Tensor>]()
  %/flows.9/Unsqueeze_42_output_0 = Unsqueeze(%/flows.9/Expand_53_output_0, %/flows.9/Constant_392_output_0)
  %/flows.9/Shape_126_output_0 = Shape(%/flows.9/Shape_124_output_0)
  %/flows.9/ConstantOfShape_58_output_0 = ConstantOfShape[value = <Tensor>](%/flows.9/Shape_126_output_0)
  %/flows.9/Constant_393_output_0 = Constant[value = <Scalar Tensor []>]()
  %/flows.9/Mul_62_output_0 = Mul(%/flows.9/ConstantOfShape_58_output_0, %/flows.9/Constant_393_output_0)
  %/flows.9/Equal_36_output_0 = Equal(%/flows.9/Shape_124_output_0, %/flows.9/Mul_62_output_0)
  %/flows.9/Where_37_output_0 = Where(%/flows.9/Equal_36_output_0, %/flows.9/ConstantOfShape_58_output_0, %/flows.9/Shape_124_output_0)
  %/flows.9/Expand_54_output_0 = Expand(%/flows.9/Constant_388_output_0, %/flows.9/Where_37_output_0)
  %/flows.9/Constant_394_output_0 = Constant[value = <Tensor>]()
  %/flows.9/Unsqueeze_43_output_0 = Unsqueeze(%/flows.9/Expand_54_output_0, %/flows.9/Constant_394_output_0)
  %/flows.9/Concat_38_output_0 = Concat[axis = -1](%/flows.9/Unsqueeze_42_output_0, %/flows.9/Unsqueeze_43_output_0)
  %/flows.9/Shape_127_output_0 = Shape(%/flows.9/ScatterND_16_output_0)
  %/flows.9/Constant_395_output_0 = Constant[value = <Tensor>]()
  %/flows.9/Constant_396_output_0 = Constant[value = <Tensor>]()
  %/flows.9/Constant_397_output_0 = Constant[value = <Tensor>]()
  %/flows.9/Slice_35_output_0 = Slice(%/flows.9/Shape_127_output_0, %/flows.9/Constant_396_output_0, %/flows.9/Constant_397_output_0, %/flows.9/Constant_395_output_0)
  %/flows.9/Concat_39_output_0 = Concat[axis = 0](%/flows.9/Shape_124_output_0, %/flows.9/Slice_35_output_0)
  %/flows.9/Reshape_52_output_0 = Reshape[allowzero = 0](%/flows.9/Expand_52_output_0, %/flows.9/Concat_39_output_0)
  %/flows.9/ScatterND_17_output_0 = ScatterND(%/flows.9/ScatterND_16_output_0, %/flows.9/Concat_38_output_0, %/flows.9/Reshape_52_output_0)
  %/flows.9/Gather_51_output_0 = Gather[axis = 1](%/flows.9/ScatterND_17_output_0, %/transformer/encoder/Constant_2_output_0)
  %/flows.9/Shape_128_output_0 = Shape(%/flows.9/Gather_51_output_0)
  %/flows.9/Expand_55_output_0 = Expand(%/flows.9/Add_35_output_0, %/flows.9/Shape_128_output_0)
  %/flows.9/Shape_129_output_0 = Shape(%/flows.9/ScatterND_17_output_0)
  %/flows.9/Constant_398_output_0 = Constant[value = <Scalar Tensor []>]()
  %/flows.9/Gather_52_output_0 = Gather[axis = 0](%/flows.9/Shape_129_output_0, %/flows.9/Constant_398_output_0)
  %/flows.9/Cast_29_output_0 = Cast[to = 7](%/flows.9/Gather_52_output_0)
  %/flows.9/Constant_399_output_0 = Constant[value = <Scalar Tensor []>]()
  %/flows.9/Constant_400_output_0 = Constant[value = <Scalar Tensor []>]()
  %/flows.9/Range_19_output_0 = Range(%/flows.9/Constant_399_output_0, %/flows.9/Cast_29_output_0, %/flows.9/Constant_400_output_0)
  %/flows.9/Constant_401_output_0 = Constant[value = <Tensor>]()
  %/flows.9/Constant_402_output_0 = Constant[value = <Tensor>]()
  %/flows.9/Reshape_53_output_0 = Reshape[allowzero = 0](%/flows.9/Range_19_output_0, %/flows.9/Constant_402_output_0)
  %/flows.9/Constant_403_output_0 = Constant[value = <Tensor>]()
  %/flows.9/Add_37_output_0 = Add(%/flows.9/Reshape_53_output_0, %/flows.9/Constant_403_output_0)
  %/flows.9/Shape_130_output_0 = Shape(%/flows.9/Add_37_output_0)
  %/flows.9/Shape_131_output_0 = Shape(%/flows.9/Shape_130_output_0)
  %/flows.9/ConstantOfShape_59_output_0 = ConstantOfShape[value = <Tensor>](%/flows.9/Shape_131_output_0)
  %/flows.9/Constant_404_output_0 = Constant[value = <Scalar Tensor []>]()
  %/flows.9/Mul_63_output_0 = Mul(%/flows.9/ConstantOfShape_59_output_0, %/flows.9/Constant_404_output_0)
  %/flows.9/Equal_37_output_0 = Equal(%/flows.9/Shape_130_output_0, %/flows.9/Mul_63_output_0)
  %/flows.9/Where_38_output_0 = Where(%/flows.9/Equal_37_output_0, %/flows.9/ConstantOfShape_59_output_0, %/flows.9/Shape_130_output_0)
  %/flows.9/Expand_56_output_0 = Expand(%/flows.9/Reshape_53_output_0, %/flows.9/Where_38_output_0)
  %/flows.9/Constant_405_output_0 = Constant[value = <Tensor>]()
  %/flows.9/Unsqueeze_44_output_0 = Unsqueeze(%/flows.9/Expand_56_output_0, %/flows.9/Constant_405_output_0)
  %/flows.9/Shape_132_output_0 = Shape(%/flows.9/Shape_130_output_0)
  %/flows.9/ConstantOfShape_60_output_0 = ConstantOfShape[value = <Tensor>](%/flows.9/Shape_132_output_0)
  %/flows.9/Constant_406_output_0 = Constant[value = <Scalar Tensor []>]()
  %/flows.9/Mul_64_output_0 = Mul(%/flows.9/ConstantOfShape_60_output_0, %/flows.9/Constant_406_output_0)
  %/flows.9/Equal_38_output_0 = Equal(%/flows.9/Shape_130_output_0, %/flows.9/Mul_64_output_0)
  %/flows.9/Where_39_output_0 = Where(%/flows.9/Equal_38_output_0, %/flows.9/ConstantOfShape_60_output_0, %/flows.9/Shape_130_output_0)
  %/flows.9/Expand_57_output_0 = Expand(%/flows.9/Constant_401_output_0, %/flows.9/Where_39_output_0)
  %/flows.9/Constant_407_output_0 = Constant[value = <Tensor>]()
  %/flows.9/Unsqueeze_45_output_0 = Unsqueeze(%/flows.9/Expand_57_output_0, %/flows.9/Constant_407_output_0)
  %/flows.9/Concat_40_output_0 = Concat[axis = -1](%/flows.9/Unsqueeze_44_output_0, %/flows.9/Unsqueeze_45_output_0)
  %/flows.9/Shape_133_output_0 = Shape(%/flows.9/ScatterND_17_output_0)
  %/flows.9/Constant_408_output_0 = Constant[value = <Tensor>]()
  %/flows.9/Constant_409_output_0 = Constant[value = <Tensor>]()
  %/flows.9/Constant_410_output_0 = Constant[value = <Tensor>]()
  %/flows.9/Slice_36_output_0 = Slice(%/flows.9/Shape_133_output_0, %/flows.9/Constant_409_output_0, %/flows.9/Constant_410_output_0, %/flows.9/Constant_408_output_0)
  %/flows.9/Concat_41_output_0 = Concat[axis = 0](%/flows.9/Shape_130_output_0, %/flows.9/Slice_36_output_0)
  %/flows.9/Reshape_54_output_0 = Reshape[allowzero = 0](%/flows.9/Expand_55_output_0, %/flows.9/Concat_41_output_0)
  %/flows.9/ScatterND_18_output_0 = ScatterND(%/flows.9/ScatterND_17_output_0, %/flows.9/Concat_40_output_0, %/flows.9/Reshape_54_output_0)
  %/flows.9/Constant_411_output_0 = Constant[value = <Tensor>]()
  %/flows.9/Unsqueeze_46_output_0 = Unsqueeze(%/flows.9/GatherND_6_output_0, %/flows.9/Constant_411_output_0)
  %/flows.9/GreaterOrEqual_3_output_0 = GreaterOrEqual(%/flows.9/Unsqueeze_46_output_0, %/flows.9/ScatterND_18_output_0)
  %/flows.9/Cast_30_output_0 = Cast[to = 7](%/flows.9/GreaterOrEqual_3_output_0)
  %/flows.9/ReduceSum_2_output_0 = ReduceSum[keepdims = 0](%/flows.9/Cast_30_output_0, %onnx::ReduceSum_2001)
  %/flows.9/Constant_412_output_0 = Constant[value = <Scalar Tensor []>]()
  %/flows.9/Sub_15_output_0 = Sub(%/flows.9/ReduceSum_2_output_0, %/flows.9/Constant_412_output_0)
  %/flows.9/Constant_413_output_0 = Constant[value = <Tensor>]()
  %/flows.9/Unsqueeze_47_output_0 = Unsqueeze(%/flows.9/Sub_15_output_0, %/flows.9/Constant_413_output_0)
  %/flows.9/GatherElements_7_output_0 = GatherElements[axis = -1](%/flows.9/ScatterND_14_output_0, %/flows.9/Unsqueeze_47_output_0)
  %/flows.9/Gather_53_output_0 = Gather[axis = 1](%/flows.9/GatherElements_7_output_0, %/Constant_output_0)
  %/flows.9/GatherElements_8_output_0 = GatherElements[axis = -1](%/flows.9/Sub_13_output_0, %/flows.9/Unsqueeze_47_output_0)
  %/flows.9/Gather_54_output_0 = Gather[axis = 1](%/flows.9/GatherElements_8_output_0, %/Constant_output_0)
  %/flows.9/GatherElements_9_output_0 = GatherElements[axis = -1](%/flows.9/ScatterND_18_output_0, %/flows.9/Unsqueeze_47_output_0)
  %/flows.9/Gather_55_output_0 = Gather[axis = 1](%/flows.9/GatherElements_9_output_0, %/Constant_output_0)
  %/flows.9/Div_4_output_0 = Div(%/flows.9/Sub_14_output_0, %/flows.9/Sub_13_output_0)
  %/flows.9/GatherElements_10_output_0 = GatherElements[axis = -1](%/flows.9/Div_4_output_0, %/flows.9/Unsqueeze_47_output_0)
  %/flows.9/Gather_56_output_0 = Gather[axis = 1](%/flows.9/GatherElements_10_output_0, %/Constant_output_0)
  %/flows.9/GatherElements_11_output_0 = GatherElements[axis = -1](%/flows.9/Add_30_output_0, %/flows.9/Unsqueeze_47_output_0)
  %/flows.9/Gather_57_output_0 = Gather[axis = 1](%/flows.9/GatherElements_11_output_0, %/Constant_output_0)
  %/flows.9/Constant_414_output_0 = Constant[value = <Tensor>]()
  %/flows.9/Constant_415_output_0 = Constant[value = <Tensor>]()
  %/flows.9/Constant_416_output_0 = Constant[value = <Tensor>]()
  %/flows.9/Constant_417_output_0 = Constant[value = <Tensor>]()
  %/flows.9/Slice_37_output_0 = Slice(%/flows.9/Add_30_output_0, %/flows.9/Constant_415_output_0, %/flows.9/Constant_416_output_0, %/flows.9/Constant_414_output_0, %/flows.9/Constant_417_output_0)
  %/flows.9/GatherElements_12_output_0 = GatherElements[axis = -1](%/flows.9/Slice_37_output_0, %/flows.9/Unsqueeze_47_output_0)
  %/flows.9/Gather_58_output_0 = Gather[axis = 1](%/flows.9/GatherElements_12_output_0, %/Constant_output_0)
  %/flows.9/GatherElements_13_output_0 = GatherElements[axis = -1](%/flows.9/Sub_14_output_0, %/flows.9/Unsqueeze_47_output_0)
  %/flows.9/Gather_59_output_0 = Gather[axis = 1](%/flows.9/GatherElements_13_output_0, %/Constant_output_0)
  %/flows.9/Sub_16_output_0 = Sub(%/flows.9/GatherND_6_output_0, %/flows.9/Gather_55_output_0)
  %/flows.9/Add_38_output_0 = Add(%/flows.9/Gather_57_output_0, %/flows.9/Gather_58_output_0)
  %/flows.9/Constant_418_output_0 = Constant[value = <Scalar Tensor []>]()
  %/flows.9/Mul_65_output_0 = Mul(%/flows.9/Gather_56_output_0, %/flows.9/Constant_418_output_0)
  %/flows.9/Sub_17_output_0 = Sub(%/flows.9/Add_38_output_0, %/flows.9/Mul_65_output_0)
  %/flows.9/Mul_66_output_0 = Mul(%/flows.9/Sub_16_output_0, %/flows.9/Sub_17_output_0)
  %/flows.9/Sub_18_output_0 = Sub(%/flows.9/Gather_56_output_0, %/flows.9/Gather_57_output_0)
  %/flows.9/Mul_67_output_0 = Mul(%/flows.9/Gather_59_output_0, %/flows.9/Sub_18_output_0)
  %/flows.9/Add_39_output_0 = Add(%/flows.9/Mul_66_output_0, %/flows.9/Mul_67_output_0)
  %/flows.9/Mul_68_output_0 = Mul(%/flows.9/Gather_59_output_0, %/flows.9/Gather_57_output_0)
  %/flows.9/Sub_19_output_0 = Sub(%/flows.9/Mul_68_output_0, %/flows.9/Mul_66_output_0)
  %/flows.9/Neg_3_output_0 = Neg(%/flows.9/Gather_56_output_0)
  %/flows.9/Mul_69_output_0 = Mul(%/flows.9/Neg_3_output_0, %/flows.9/Sub_16_output_0)
  %/flows.9/Constant_419_output_0 = Constant[value = <Scalar Tensor []>]()
  %/flows.9/Pow_4_output_0 = Pow(%/flows.9/Sub_19_output_0, %/flows.9/Constant_419_output_0)
  %/flows.9/Constant_420_output_0 = Constant[value = <Scalar Tensor []>]()
  %/flows.9/Mul_70_output_0 = Mul(%/flows.9/Add_39_output_0, %/flows.9/Constant_420_output_0)
  %/flows.9/Mul_71_output_0 = Mul(%/flows.9/Mul_70_output_0, %/flows.9/Mul_69_output_0)
  %/flows.9/Sub_20_output_0 = Sub(%/flows.9/Pow_4_output_0, %/flows.9/Mul_71_output_0)
  %/flows.9/Constant_421_output_0 = Constant[value = <Scalar Tensor []>]()
  %/flows.9/Mul_72_output_0 = Mul(%/flows.9/Mul_69_output_0, %/flows.9/Constant_421_output_0)
  %/flows.9/Neg_4_output_0 = Neg(%/flows.9/Sub_19_output_0)
  %/flows.9/Sqrt_1_output_0 = Sqrt(%/flows.9/Sub_20_output_0)
  %/flows.9/Sub_21_output_0 = Sub(%/flows.9/Neg_4_output_0, %/flows.9/Sqrt_1_output_0)
  %/flows.9/Div_5_output_0 = Div(%/flows.9/Mul_72_output_0, %/flows.9/Sub_21_output_0)
  %/flows.9/Mul_73_output_0 = Mul(%/flows.9/Div_5_output_0, %/flows.9/Gather_54_output_0)
  %/flows.9/Add_40_output_0 = Add(%/flows.9/Mul_73_output_0, %/flows.9/Gather_53_output_0)
  %/flows.9/Constant_422_output_0 = Constant[value = <Scalar Tensor []>]()
  %/flows.9/Sub_22_output_0 = Sub(%/flows.9/Constant_422_output_0, %/flows.9/Div_5_output_0)
  %/flows.9/Mul_74_output_0 = Mul(%/flows.9/Div_5_output_0, %/flows.9/Sub_22_output_0)
  %/flows.9/Mul_75_output_0 = Mul(%/flows.9/Sub_17_output_0, %/flows.9/Mul_74_output_0)
  %/flows.9/Add_41_output_0 = Add(%/flows.9/Gather_56_output_0, %/flows.9/Mul_75_output_0)
  %/flows.9/Constant_423_output_0 = Constant[value = <Scalar Tensor []>]()
  %/flows.9/Pow_5_output_0 = Pow(%/flows.9/Gather_56_output_0, %/flows.9/Constant_423_output_0)
  %/flows.9/Constant_424_output_0 = Constant[value = <Scalar Tensor []>]()
  %/flows.9/Pow_6_output_0 = Pow(%/flows.9/Div_5_output_0, %/flows.9/Constant_424_output_0)
  %/flows.9/Mul_76_output_0 = Mul(%/flows.9/Gather_58_output_0, %/flows.9/Pow_6_output_0)
  %/flows.9/Mul_77_output_0 = Mul(%/flows.9/Mul_65_output_0, %/flows.9/Mul_74_output_0)
  %/flows.9/Add_42_output_0 = Add(%/flows.9/Mul_76_output_0, %/flows.9/Mul_77_output_0)
  %/flows.9/Constant_425_output_0 = Constant[value = <Scalar Tensor []>]()
  %/flows.9/Pow_7_output_0 = Pow(%/flows.9/Sub_22_output_0, %/flows.9/Constant_425_output_0)
  %/flows.9/Mul_78_output_0 = Mul(%/flows.9/Gather_57_output_0, %/flows.9/Pow_7_output_0)
  %/flows.9/Add_43_output_0 = Add(%/flows.9/Add_42_output_0, %/flows.9/Mul_78_output_0)
  %/flows.9/Mul_79_output_0 = Mul(%/flows.9/Pow_5_output_0, %/flows.9/Add_43_output_0)
  %/flows.9/Log_2_output_0 = Log(%/flows.9/Mul_79_output_0)
  %/flows.9/Log_3_output_0 = Log(%/flows.9/Add_41_output_0)
  %/flows.9/Constant_426_output_0 = Constant[value = <Scalar Tensor []>]()
  %/flows.9/Mul_80_output_0 = Mul(%/flows.9/Log_3_output_0, %/flows.9/Constant_426_output_0)
  %/flows.9/Sub_23_output_0 = Sub(%/flows.9/Log_2_output_0, %/flows.9/Mul_80_output_0)
  %/flows.9/Neg_5_output_0 = Neg(%/flows.9/Sub_23_output_0)
  %/flows.9/Shape_134_output_0 = Shape(%/flows.9/ConstantOfShape_41_output_0)
  %/flows.9/Expand_58_output_0 = Expand(%/flows.9/Not_1_output_0, %/flows.9/Shape_134_output_0)
  %/flows.9/NonZero_13_output_0 = NonZero(%/flows.9/Expand_58_output_0)
  %/flows.9/Transpose_19_output_0 = Transpose[perm = [1, 0]](%/flows.9/NonZero_13_output_0)
  %/flows.9/Constant_427_output_0 = Constant[value = <Tensor>]()
  %/flows.9/Reshape_55_output_0 = Reshape[allowzero = 0](%/flows.9/GatherND_5_output_0, %/flows.9/Constant_427_output_0)
  %/flows.9/Shape_135_output_0 = Shape(%/flows.9/Transpose_19_output_0)
  %/flows.9/Constant_428_output_0 = Constant[value = <Scalar Tensor []>]()
  %/flows.9/Gather_60_output_0 = Gather[axis = 0](%/flows.9/Shape_135_output_0, %/flows.9/Constant_428_output_0)
  %/flows.9/Constant_429_output_0 = Constant[value = <Tensor>]()
  %/flows.9/Constant_430_output_0 = Constant[value = <Tensor>]()
  %/flows.9/Constant_431_output_0 = Constant[value = <Tensor>]()
  %/flows.9/Unsqueeze_48_output_0 = Unsqueeze(%/flows.9/Gather_60_output_0, %/flows.9/Constant_431_output_0)
  %/flows.9/Slice_38_output_0 = Slice(%/flows.9/Reshape_55_output_0, %/flows.9/Constant_430_output_0, %/flows.9/Unsqueeze_48_output_0, %/flows.9/Constant_429_output_0)
  %/flows.9/ScatterND_19_output_0 = ScatterND(%/flows.9/ConstantOfShape_41_output_0, %/flows.9/Transpose_19_output_0, %/flows.9/Slice_38_output_0)
  %/flows.9/Shape_136_output_0 = Shape(%/flows.9/ScatterND_19_output_0)
  %/flows.9/Expand_59_output_0 = Expand(%/flows.9/And_1_output_0, %/flows.9/Shape_136_output_0)
  %/flows.9/NonZero_14_output_0 = NonZero(%/flows.9/Expand_59_output_0)
  %/flows.9/Transpose_20_output_0 = Transpose[perm = [1, 0]](%/flows.9/NonZero_14_output_0)
  %/flows.9/Constant_432_output_0 = Constant[value = <Tensor>]()
  %/flows.9/Reshape_56_output_0 = Reshape[allowzero = 0](%/flows.9/Add_40_output_0, %/flows.9/Constant_432_output_0)
  %/flows.9/Shape_137_output_0 = Shape(%/flows.9/Transpose_20_output_0)
  %/flows.9/Constant_433_output_0 = Constant[value = <Scalar Tensor []>]()
  %/flows.9/Gather_61_output_0 = Gather[axis = 0](%/flows.9/Shape_137_output_0, %/flows.9/Constant_433_output_0)
  %/flows.9/Constant_434_output_0 = Constant[value = <Tensor>]()
  %/flows.9/Constant_435_output_0 = Constant[value = <Tensor>]()
  %/flows.9/Constant_436_output_0 = Constant[value = <Tensor>]()
  %/flows.9/Unsqueeze_49_output_0 = Unsqueeze(%/flows.9/Gather_61_output_0, %/flows.9/Constant_436_output_0)
  %/flows.9/Slice_39_output_0 = Slice(%/flows.9/Reshape_56_output_0, %/flows.9/Constant_435_output_0, %/flows.9/Unsqueeze_49_output_0, %/flows.9/Constant_434_output_0)
  %/flows.9/ScatterND_20_output_0 = ScatterND(%/flows.9/ScatterND_19_output_0, %/flows.9/Transpose_20_output_0, %/flows.9/Slice_39_output_0)
  %/flows.9/Cast_31_output_0 = Cast[to = 9](%/flows.9/Not_1_output_0)
  %/flows.9/Constant_437_output_0 = Constant[value = <Scalar Tensor []>]()
  %/flows.9/Where_40_output_0 = Where(%/flows.9/Cast_31_output_0, %/flows.9/Constant_437_output_0, %/flows.9/ConstantOfShape_42_output_0)
  %/flows.9/Shape_138_output_0 = Shape(%/flows.9/Where_40_output_0)
  %/flows.9/Expand_60_output_0 = Expand(%/flows.9/And_1_output_0, %/flows.9/Shape_138_output_0)
  %/flows.9/NonZero_15_output_0 = NonZero(%/flows.9/Expand_60_output_0)
  %/flows.9/Transpose_21_output_0 = Transpose[perm = [1, 0]](%/flows.9/NonZero_15_output_0)
  %/flows.9/Constant_438_output_0 = Constant[value = <Tensor>]()
  %/flows.9/Reshape_57_output_0 = Reshape[allowzero = 0](%/flows.9/Neg_5_output_0, %/flows.9/Constant_438_output_0)
  %/flows.9/Shape_139_output_0 = Shape(%/flows.9/Transpose_21_output_0)
  %/flows.9/Constant_439_output_0 = Constant[value = <Scalar Tensor []>]()
  %/flows.9/Gather_62_output_0 = Gather[axis = 0](%/flows.9/Shape_139_output_0, %/flows.9/Constant_439_output_0)
  %/flows.9/Constant_440_output_0 = Constant[value = <Tensor>]()
  %/flows.9/Constant_441_output_0 = Constant[value = <Tensor>]()
  %/flows.9/Constant_442_output_0 = Constant[value = <Tensor>]()
  %/flows.9/Unsqueeze_50_output_0 = Unsqueeze(%/flows.9/Gather_62_output_0, %/flows.9/Constant_442_output_0)
  %/flows.9/Slice_40_output_0 = Slice(%/flows.9/Reshape_57_output_0, %/flows.9/Constant_441_output_0, %/flows.9/Unsqueeze_50_output_0, %/flows.9/Constant_440_output_0)
  %/flows.9/ScatterND_21_output_0 = ScatterND(%/flows.9/Where_40_output_0, %/flows.9/Transpose_21_output_0, %/flows.9/Slice_40_output_0)
  %/flows.9/ReduceSum_3_output_0 = ReduceSum[keepdims = 0](%/flows.9/ScatterND_21_output_0, %onnx::ReduceSum_1367)
  %/flows.9/Add_44_output_0 = Add(%/flows.9/ReduceSum_1_output_0, %/flows.9/ReduceSum_3_output_0)
  %/flows.9/Shape_140_output_0 = Shape(%/flows.8/ScatterND_23_output_0)
  %/flows.9/ConstantOfShape_61_output_0 = ConstantOfShape[value = <Tensor>](%/flows.9/Shape_140_output_0)
  %/flows.9/Constant_443_output_0 = Constant[value = <Tensor>]()
  %/flows.9/Reshape_58_output_0 = Reshape[allowzero = 0](%/flows.9/ScatterND_9_output_0, %/flows.9/Constant_443_output_0)
  %/flows.9/Shape_141_output_0 = Shape(%/flows.9/ConstantOfShape_61_output_0)
  %/flows.9/Constant_444_output_0 = Constant[value = <Scalar Tensor []>]()
  %/flows.9/Gather_63_output_0 = Gather[axis = 0](%/flows.9/Shape_141_output_0, %/flows.9/Constant_444_output_0)
  %/flows.9/Cast_32_output_0 = Cast[to = 7](%/flows.9/Gather_63_output_0)
  %/flows.9/Constant_445_output_0 = Constant[value = <Scalar Tensor []>]()
  %/flows.9/Constant_446_output_0 = Constant[value = <Scalar Tensor []>]()
  %/flows.9/Range_20_output_0 = Range(%/flows.9/Constant_445_output_0, %/flows.9/Cast_32_output_0, %/flows.9/Constant_446_output_0)
  %/flows.9/Constant_447_output_0 = Constant[value = <Tensor>]()
  %/flows.9/Reshape_59_output_0 = Reshape[allowzero = 0](%/flows.9/Range_20_output_0, %/flows.9/Constant_447_output_0)
  %/flows.9/Add_45_output_0 = Add(%/flows.9/Reshape_59_output_0, %flow.flows.9.prqct.identity_features)
  %/flows.9/Shape_142_output_0 = Shape(%/flows.9/Add_45_output_0)
  %/flows.9/Shape_143_output_0 = Shape(%/flows.9/Shape_142_output_0)
  %/flows.9/ConstantOfShape_62_output_0 = ConstantOfShape[value = <Tensor>](%/flows.9/Shape_143_output_0)
  %/flows.9/Constant_448_output_0 = Constant[value = <Scalar Tensor []>]()
  %/flows.9/Mul_81_output_0 = Mul(%/flows.9/ConstantOfShape_62_output_0, %/flows.9/Constant_448_output_0)
  %/flows.9/Equal_39_output_0 = Equal(%/flows.9/Shape_142_output_0, %/flows.9/Mul_81_output_0)
  %/flows.9/Where_41_output_0 = Where(%/flows.9/Equal_39_output_0, %/flows.9/ConstantOfShape_62_output_0, %/flows.9/Shape_142_output_0)
  %/flows.9/Expand_61_output_0 = Expand(%/flows.9/Reshape_59_output_0, %/flows.9/Where_41_output_0)
  %/flows.9/Constant_449_output_0 = Constant[value = <Tensor>]()
  %/flows.9/Unsqueeze_51_output_0 = Unsqueeze(%/flows.9/Expand_61_output_0, %/flows.9/Constant_449_output_0)
  %/flows.9/Shape_144_output_0 = Shape(%/flows.9/Shape_142_output_0)
  %/flows.9/ConstantOfShape_63_output_0 = ConstantOfShape[value = <Tensor>](%/flows.9/Shape_144_output_0)
  %/flows.9/Constant_450_output_0 = Constant[value = <Scalar Tensor []>]()
  %/flows.9/Mul_82_output_0 = Mul(%/flows.9/ConstantOfShape_63_output_0, %/flows.9/Constant_450_output_0)
  %/flows.9/Equal_40_output_0 = Equal(%/flows.9/Shape_142_output_0, %/flows.9/Mul_82_output_0)
  %/flows.9/Where_42_output_0 = Where(%/flows.9/Equal_40_output_0, %/flows.9/ConstantOfShape_63_output_0, %/flows.9/Shape_142_output_0)
  %/flows.9/Expand_62_output_0 = Expand(%flow.flows.9.prqct.identity_features, %/flows.9/Where_42_output_0)
  %/flows.9/Constant_451_output_0 = Constant[value = <Tensor>]()
  %/flows.9/Unsqueeze_52_output_0 = Unsqueeze(%/flows.9/Expand_62_output_0, %/flows.9/Constant_451_output_0)
  %/flows.9/Concat_42_output_0 = Concat[axis = -1](%/flows.9/Unsqueeze_51_output_0, %/flows.9/Unsqueeze_52_output_0)
  %/flows.9/Shape_145_output_0 = Shape(%/flows.9/ConstantOfShape_61_output_0)
  %/flows.9/Constant_452_output_0 = Constant[value = <Tensor>]()
  %/flows.9/Constant_453_output_0 = Constant[value = <Tensor>]()
  %/flows.9/Constant_454_output_0 = Constant[value = <Tensor>]()
  %/flows.9/Slice_41_output_0 = Slice(%/flows.9/Shape_145_output_0, %/flows.9/Constant_453_output_0, %/flows.9/Constant_454_output_0, %/flows.9/Constant_452_output_0)
  %/flows.9/Concat_43_output_0 = Concat[axis = 0](%/flows.9/Shape_142_output_0, %/flows.9/Slice_41_output_0)
  %/flows.9/Reshape_60_output_0 = Reshape[allowzero = 0](%/flows.9/Reshape_58_output_0, %/flows.9/Concat_43_output_0)
  %/flows.9/ScatterND_22_output_0 = ScatterND(%/flows.9/ConstantOfShape_61_output_0, %/flows.9/Concat_42_output_0, %/flows.9/Reshape_60_output_0)
  %/flows.9/Constant_455_output_0 = Constant[value = <Tensor>]()
  %/flows.9/Reshape_61_output_0 = Reshape[allowzero = 0](%/flows.9/ScatterND_20_output_0, %/flows.9/Constant_455_output_0)
  %/flows.9/Shape_146_output_0 = Shape(%/flows.9/ScatterND_22_output_0)
  %/flows.9/Constant_456_output_0 = Constant[value = <Scalar Tensor []>]()
  %/flows.9/Gather_64_output_0 = Gather[axis = 0](%/flows.9/Shape_146_output_0, %/flows.9/Constant_456_output_0)
  %/flows.9/Cast_33_output_0 = Cast[to = 7](%/flows.9/Gather_64_output_0)
  %/flows.9/Constant_457_output_0 = Constant[value = <Scalar Tensor []>]()
  %/flows.9/Constant_458_output_0 = Constant[value = <Scalar Tensor []>]()
  %/flows.9/Range_21_output_0 = Range(%/flows.9/Constant_457_output_0, %/flows.9/Cast_33_output_0, %/flows.9/Constant_458_output_0)
  %/flows.9/Constant_459_output_0 = Constant[value = <Tensor>]()
  %/flows.9/Reshape_62_output_0 = Reshape[allowzero = 0](%/flows.9/Range_21_output_0, %/flows.9/Constant_459_output_0)
  %/flows.9/Add_46_output_0 = Add(%/flows.9/Reshape_62_output_0, %flow.flows.9.prqct.transform_features)
  %/flows.9/Shape_147_output_0 = Shape(%/flows.9/Add_46_output_0)
  %/flows.9/Shape_148_output_0 = Shape(%/flows.9/Shape_147_output_0)
  %/flows.9/ConstantOfShape_64_output_0 = ConstantOfShape[value = <Tensor>](%/flows.9/Shape_148_output_0)
  %/flows.9/Constant_460_output_0 = Constant[value = <Scalar Tensor []>]()
  %/flows.9/Mul_83_output_0 = Mul(%/flows.9/ConstantOfShape_64_output_0, %/flows.9/Constant_460_output_0)
  %/flows.9/Equal_41_output_0 = Equal(%/flows.9/Shape_147_output_0, %/flows.9/Mul_83_output_0)
  %/flows.9/Where_43_output_0 = Where(%/flows.9/Equal_41_output_0, %/flows.9/ConstantOfShape_64_output_0, %/flows.9/Shape_147_output_0)
  %/flows.9/Expand_63_output_0 = Expand(%/flows.9/Reshape_62_output_0, %/flows.9/Where_43_output_0)
  %/flows.9/Constant_461_output_0 = Constant[value = <Tensor>]()
  %/flows.9/Unsqueeze_53_output_0 = Unsqueeze(%/flows.9/Expand_63_output_0, %/flows.9/Constant_461_output_0)
  %/flows.9/Shape_149_output_0 = Shape(%/flows.9/Shape_147_output_0)
  %/flows.9/ConstantOfShape_65_output_0 = ConstantOfShape[value = <Tensor>](%/flows.9/Shape_149_output_0)
  %/flows.9/Constant_462_output_0 = Constant[value = <Scalar Tensor []>]()
  %/flows.9/Mul_84_output_0 = Mul(%/flows.9/ConstantOfShape_65_output_0, %/flows.9/Constant_462_output_0)
  %/flows.9/Equal_42_output_0 = Equal(%/flows.9/Shape_147_output_0, %/flows.9/Mul_84_output_0)
  %/flows.9/Where_44_output_0 = Where(%/flows.9/Equal_42_output_0, %/flows.9/ConstantOfShape_65_output_0, %/flows.9/Shape_147_output_0)
  %/flows.9/Expand_64_output_0 = Expand(%flow.flows.9.prqct.transform_features, %/flows.9/Where_44_output_0)
  %/flows.9/Constant_463_output_0 = Constant[value = <Tensor>]()
  %/flows.9/Unsqueeze_54_output_0 = Unsqueeze(%/flows.9/Expand_64_output_0, %/flows.9/Constant_463_output_0)
  %/flows.9/Concat_44_output_0 = Concat[axis = -1](%/flows.9/Unsqueeze_53_output_0, %/flows.9/Unsqueeze_54_output_0)
  %/flows.9/Shape_150_output_0 = Shape(%/flows.9/ScatterND_22_output_0)
  %/flows.9/Constant_464_output_0 = Constant[value = <Tensor>]()
  %/flows.9/Constant_465_output_0 = Constant[value = <Tensor>]()
  %/flows.9/Constant_466_output_0 = Constant[value = <Tensor>]()
  %/flows.9/Slice_42_output_0 = Slice(%/flows.9/Shape_150_output_0, %/flows.9/Constant_465_output_0, %/flows.9/Constant_466_output_0, %/flows.9/Constant_464_output_0)
  %/flows.9/Concat_45_output_0 = Concat[axis = 0](%/flows.9/Shape_147_output_0, %/flows.9/Slice_42_output_0)
  %/flows.9/Reshape_63_output_0 = Reshape[allowzero = 0](%/flows.9/Reshape_61_output_0, %/flows.9/Concat_45_output_0)
  %/flows.9/ScatterND_23_output_0 = ScatterND(%/flows.9/ScatterND_22_output_0, %/flows.9/Concat_44_output_0, %/flows.9/Reshape_63_output_0)
  %/flows.9/Constant_467_output_0 = Constant[value = <Tensor>]()
  %/flows.9/Reshape_64_output_0 = Reshape[allowzero = 0](%/flows.9/Add_44_output_0, %/flows.9/Constant_467_output_0)
  %log_probs = Sub(%/Sub_8_output_0, %/flows.9/Reshape_64_output_0)
  %/Mul_output_0 = Mul(%/flows.9/ScatterND_23_output_0, %onnx::Mul_18302)
  %/Add_output_0 = Add(%/Mul_output_0, %target_norm.means)
  %/Constant_8_output_0 = Constant[value = <Tensor>]()
  %/Constant_9_output_0 = Constant[value = <Tensor>]()
  %/Constant_10_output_0 = Constant[value = <Tensor>]()
  %/Constant_11_output_0 = Constant[value = <Tensor>]()
  %neutrinos = Slice(%/Add_output_0, %/Constant_9_output_0, %/Constant_10_output_0, %/Constant_8_output_0, %/Constant_11_output_0)
  %/Constant_12_output_0 = Constant[value = <Tensor>]()
  %/Constant_13_output_0 = Constant[value = <Tensor>]()
  %/Constant_14_output_0 = Constant[value = <Tensor>]()
  %/Constant_15_output_0 = Constant[value = <Tensor>]()
  %/Slice_1_output_0 = Slice(%/Add_output_0, %/Constant_13_output_0, %/Constant_14_output_0, %/Constant_12_output_0, %/Constant_15_output_0)
  %/Constant_16_output_0 = Constant[value = <Tensor>]()
  %/Constant_17_output_0 = Constant[value = <Tensor>]()
  %/Constant_18_output_0 = Constant[value = <Tensor>]()
  %/Constant_19_output_0 = Constant[value = <Tensor>]()
  %antineutrino = Slice(%/Slice_1_output_0, %/Constant_17_output_0, %/Constant_18_output_0, %/Constant_16_output_0, %/Constant_19_output_0)
  return %neutrinos, %antineutrino, %log_probs
}

graph sub_graph {
  %/ConcatFromSequence_output_0 = ConcatFromSequence[axis = 0, new_axis = 0](%/SequenceConstruct_output_0)
  return %/ConcatFromSequence_output_0
}

graph sub_graph1 {
  %/ConcatFromSequence_1_output_0 = ConcatFromSequence[axis = 1, new_axis = 0](%/SequenceConstruct_output_0)
  return %/ConcatFromSequence_1_output_0
}

graph sub_graph2 {
  %/transformer/pool/Constant_8_output_0 = Constant[value = <Tensor>]()
  %/transformer/pool/Squeeze_output_0 = Squeeze(%/transformer/pool/layers.1/ff/Add_output_0, %/transformer/pool/Constant_8_output_0)
  return %/transformer/pool/Squeeze_output_0
}

graph sub_graph3 {
  %/transformer/pool/Identity_output_0 = Identity(%/transformer/pool/layers.1/ff/Add_output_0)
  return %/transformer/pool/Identity_output_0
}